ParamsAlgoAP/ETH/params16.npz (npz, 15140 bytes, 3 tensors)

means f8 [96, 16]
00000000: 2b12 1481 791a 223f 7200 892f ea19 203f
00000010: e25d e59a 3af4 213f 5d41 1466 ed23 d53e
00000020: e6a8 84e4 03be 21bf 24fe a90f ca0d 1fbf
00000030: 2afe 4fbf 5c4d 22bf 1bc5 e7e7 c06d f4be
00000040: cef7 96a2 caab 403f a75c 4c6a 74d5 563f
00000050: 173f eae9 eddc 43bf 8b2d f456 e214 0cbf
00000060: 5de0 ff54 59f6 42bf 57c1 4f52 e34f 6bbf
00000070: 553d 6817 0d20 59bf f462 2586 70e5 183f
00000080: c64e 67ee 5a0c 083f e842 2c16 0dd4 1d3f
00000090: 326e f5eb 60b0 003f a002 d038 6a4a e1be
000000a0: 0387 6c00 47d0 0abf a572 fdfa 2186 0dbf
000000b0: 3f72 e1ac 9305 ffbe 3a1c 1afc 57c8 e33e
000000c0: 905f b0e7 4f30 263f 891b c85d b025 2e3f
000000d0: 26b9 7569 f93b 153f b843 c80b 4a27 18bf
000000e0: 31a9 0358 9d2d 2abf e40a 3e08 711c 30bf
000000f0: a046 3a08 de7e e7be 722a a1f8 87b4 1c3f
00000100: d694 67a8 3dfa f93e 6535 aefd 8c47 073f
00000110: ad4f 2b2e 1aba dfbe 8d5b f6e1 af8c e4be
00000120: a87a 0236 6d25 f9be ada3 2f2e 15fd 0cbf
00000130: 6d83 6ae5 2239 e2be 483c e3a9 6d59 f43e
00000140: 4a27 3d89 4049 2d3f 58c2 d992 4ca0 2e3f
00000150: dc01 994f 38d3 f23e f3d2 1400 9a82 1bbf
00000160: 689c 6c8a 58df 2bbf a803 1cb3 44de 14bf
00000170: 40f1 2fd3 37fe 0e3f b8f2 50ed 45c3 1a3f
00000180: adf2 c08e 8e58 0b3f 9170 82bb 9a90 df3e
00000190: f2d6 7201 ddea f1be 5e6e c45c edd0 fcbe
000001a0: 7bbb 6d72 043a 0bbf 1558 baa0 c5dc e7be
000001b0: 028f 88a6 d7cc bebe 50a8 1a53 3508 fc3e
000001c0: d387 bc81 472d 243f c402 8b2f 7557 1b3f
000001d0: 81cc 4313 be7e d63e ee87 a41c e958 11bf
000001e0: bb3c 4a8d a96f 28bf 036f f39d 4b75 1bbf
000001f0: 0d21 6651 d62d 053f a3b1 f8bf 725c 213f
00000200: 2aae 8ba7 1bba 113f 85c2 7801 c9de bcbe
00000210: 4934 b6b6 a421 f2be 7373 a208 abac f03e
00000220: 9c5c ca05 bc6e a8be f484 1faa 6012 08bf
00000230: adea 9299 170d f43e 8e99 b101 aae6 f63e
00000240: e4e5 23bd 55f9 203f fd5e 35a7 cc81 0b3f
00000250: 11c9 95eb f142 e43e f4a6 6d58 4dbe 1dbf
00000260: 4e1a 4b51 b71b 21bf 7792 8fe6 9efb 0abf
00000270: c5b3 832b 348c f33e 4618 2008 3de0 1b3f
00000280: 7c22 eec6 e0ad e03e d729 f362 130a f23e
00000290: 690a bc6a 2ddb fc3e 44f9 5c5e 1269 02bf
000002a0: 3b2f 0551 645f f9be 93ab 68ba b57e e2be
000002b0: 0425 6bfe 19a3 e53e edc2 7e82 d95a e5be
000002c0: 2395 26db 01ca 223f 7235 80e3 0442 153f
000002d0: e646 8d2e 3ef0 0dbf 38ca 258d f201 1bbf
000002e0: 281f 7d83 a03c 14bf 07a5 a065 370e f43e
000002f0: eccf 5169 507e 093f 1425 9542 3222 173f
00000300: 5132 ba9b 3caf fe3e 45fd c562 51ef ff3e
00000310: 8daf 32f7 1d66 053f aedd aa26 cc0a f2be
00000320: d0ef b563 af39 d3be 7e39 4b51 1468 02bf
00000330: 777b 7cdf 36c5 f53e cdea 4fd5 f6bd babe
00000340: 42f5 8971 09fd 1e3f 9272 ccc3 6a2f 0abf
00000350: 5503 3d50 2095 c73e 54a1 2eac 881a 04bf
00000360: 4ffb be02 77ab 15bf b321 7e51 421c b1be
00000370: b802 ec9c faaf e7be fbbf 4381 555f 0f3f
00000380: e35c 4c4c b6c8 de3e e015 98eb a958 033f
00000390: 55bc 41ce a1ee e2be db15 45d8 9dbf eb3e
000003a0: 1aab 2bec 7379 f4be 0761 f08d 59c4 02bf
000003b0: eb56 34cd b293 f03e b3b3 e374 9a1d 033f
000003c0: d066 23d1 23a2 153f 02b5 6eea f0a1 083f
000003d0: fc38 2a82 0e5b 0d3f e56c ef44 7765 03bf
000003e0: 6b6b 5422 0c71 16bf ac00 9025 2622 06bf
000003f0: 725b 1034 41d3 fcbe 164c 6010 1ec2 0b3f
00000400: b81a 07f4 59d9 f13e a663 21ca df38 ea3e
00000410: 094c 321f 29e2 efbe 62f2 c855 a5af fcbe
00000420: f2b9 c3de 95b3 d43e 68df 609b 08b6 f43e
00000430: d183 969b 9072 f4be ac00 274a f468 b53e
00000440: 2f79 8cc5 4434 1e3f 00e7 b00c 3d6e 143f
00000450: 853f 7152 7330 d83e f31b 2f3a 37e5 05bf
00000460: 340e 2a72 bc1e 16bf a2db ea2f c391 03bf
00000470: 44b7 8c0b 358a d7be 4b46 0d71 f841 103f
00000480: ce0f a510 9b14 063f 889b 3515 692f de3e
00000490: e466 2917 e5a1 fd3e 7dc1 1df0 d610 ba3e
000004a0: bb69 00df 1e12 f1be 635d 023f edd9 e6be
000004b0: c120 52d7 cdc0 e83e 7269 1511 8e31 fabe
000004c0: cd83 0bb3 322b 1b3f 5df5 dcf9 5aa4 143f
000004d0: c2fd dec2 8bdd d6be d05a 16c7 2f74 0cbf
000004e0: 46ba a824 4caa 10bf bda4 abb6 42e9 15bf
000004f0: a0a1 3819 01ad eb3e 9f47 30f3 df79 0c3f
00000500: 8f09 46e4 7775 083f 349e 0665 0988 fe3e
00000510: 536e de39 c61a c43e bf5d 5e0d 45c3 e7be
00000520: 2a06 2d3f 86a7 f2be dde8 8e0c ef41 e4be
00000530: 85da 29e4 9476 ecbe 234a 1508 2df3 ff3e
00000540: f502 72e1 4995 193f c24d fc56 617d 033f
00000550: 0491 f123 332c dc3e f83b 1398 f11e 0bbf
00000560: 99a1 6db7 6d4a 1dbf e8ba 61d0 c197 e5be
00000570: 0578 1630 8f3e fc3e b5bd a89e 78d5 0a3f
00000580: 0933 bd15 30df f63e 1287 6779 93f5 063f
00000590: b3c4 c4e4 5959 f0be 2e0d b2e5 354b d5be
000005a0: 6995 6fb7 686c ebbe 2420 e2dc e314 e5be
000005b0: 196b 60c2 1daa c3be 02a7 6946 0283 613e
000005c0: 70f8 1f79 6f75 143f cc0e 8dc2 3ae0 d03e
000005d0: 4f50 a684 0dd0 f5be 6c5b bf61 88d3 13bf
000005e0: a14d a6f8 6d1b 03bf 2d6f 25ab 400e f5be
000005f0: 8f03 67dc 324c 123f 2c98 0772 4019 123f
00000600: 6eb7 7900 6797 fb3e 8efb 6aa3 b8f8 ef3e
00000610: 72df e697 2b5e e7be a7a7 e78d 4086 fcbe
00000620: 6ec4 c520 1bb8 fdbe 08a5 f0fa c2d8 04bf
00000630: febc 8832 6e88 f03e 1498 6abd 6f4a 013f
00000640: 5c85 929a b827 143f 20bf bd97 fd72 f53e
00000650: 2d16 c594 3255 00bf e52f 2845 06ab e9be
00000660: 1b55 ba1f c1a1 03bf 92b9 2540 1a2e ecbe
00000670: ba59 a4c8 b0d8 133f da27 1c5b e020 fb3e
00000680: 38a2 fa06 6000 033f aa8c 4de3 c645 e23e
00000690: 9487 c865 29de f8be 4c98 5989 cb7a f9be
000006a0: 643f 68a9 69e7 fdbe 9950 b60d 7116 e93e
000006b0: b4ff 5274 1e9e 013f 8922 5503 d2b8 003f
000006c0: ec8e f333 16cd e53e f8c8 ca76 3bc2 debe
000006d0: e352 47ad e4fe f43e b6a1 5f2d f2fd 0ebf
000006e0: 482f 2d2a b7bd dfbe bd94 12f9 6001 a5be
000006f0: 4276 d14b 6650 f23e 7fb1 ab4d 86a1 143f
00000700: 9682 2579 799f f13e e7f6 e038 26b6 e3be
00000710: d589 0857 f4bb ec3e bb3f 7c22 bcfa f4be
00000720: c9c1 3e9f 8d33 c23e a230 f1b5 b126 f3be
00000730: 3821 91c5 5928 f53e 608e 6c9d c636 c43e
00000740: fd0f 398a 6bb8 053f 7878 220e 4659 f03e
00000750: 5368 3c56 074b d93e ca58 1aad 3eef f13e
00000760: d725 ec70 7062 f4be 05ca 7e3e 6945 f7be
00000770: f457 ca25 b37a 113f a2b8 5663 10cc e7be
00000780: a51e 77f8 54ce e03e d931 3b3d f4e6 cc3e
00000790: 23fc a193 3cf4 babe 7933 2308 20ab 02bf
000007a0: f5d4 6cc6 f697 883e 5bad 03cc 1ebb debe
000007b0: 2dba bb0f a8c4 d83e d8a6 44ad 43b4 f13e
000007c0: ec58 912c 393b 043f df61 15a4 9ee0 e33e
000007d0: 36a0 6101 a1e0 023f 44b9 06fd 49e4 fbbe
000007e0: 435b 0d7d 385e eebe ec0f 73f0 95a3 013f
000007f0: 7556 029b 5775 d63e d8c2 e9c2 efd4 f63e
0.0001381181068965826 0.00012284263336148935 0.00013697829622104281 5.040250102853212e-06 -0.00013536260144892466 -0.00011846109183898855 -0.00013963467759480044 -1.9482350120674217e-05
0.0005087603978421952 0.00139366501497821 -0.0006061708152902159 -5.3561360681876514e-05 -0.0005786834899472838 -0.0033339919923422267 -0.001533520493129566 9.497165004769185e-05
4.586842060274941e-05 0.00011378602861734542 3.183170110318232e-05 -8.244840296712825e-06 -5.114285163744343e-05 -5.631247711221824e-05 -2.9584679218751802e-05 9.433075209187598e-06
0.00016928649333247366 0.00023000505360945233 8.100232877492462e-05 -9.213818970744872e-05 -0.00019972367954974307 -0.0002458358724128208 -1.1203563423908922e-05 0.0001095016470184314
2.4774077724294716e-05 4.4402113153467125e-05 -7.564297194579474e-06 -9.798793199773128e-06 -2.3981282880054328e-05 -5.529137504096198e-05 -8.689493524118117e-06 1.94066329804422e-05
0.00022343552393016614 0.0002336591218639213 1.795299338014528e-05 -0.00010494294112535131 -0.00021264987773259307 -7.960600194324588e-05 5.911453117588223e-05 0.00010209192562711078
5.215821315160871e-05 7.525649316300049e-06 -1.7087397364354746e-05 -2.7481195318575207e-05 -5.193067618491136e-05 -1.1378474503314536e-05 -1.8358329275735916e-06 2.6733459157192712e-05
0.00015393731961760182 0.00010430004830209576 5.363246874379104e-06 -6.61747245982722e-05 -0.00018643326497567122 -0.00010474466352000324 4.03958348896301e-05 0.00013245487933611936
6.762307919999018e-05 -1.720801270265746e-06 -1.7291469175218896e-05 1.5902027862158213e-05 -7.281469254935679e-07 -4.591329094672829e-05 1.9122258525720404e-05 2.1840125651451064e-05
0.00012950107208790842 5.2465494173757254e-05 9.661437945428e-06 -0.00011346194342612051 -0.0001305257107075568 -5.1465784799896554e-05 1.8642111826606073e-05 0.00010633823879410792
7.953267610509263e-06 1.7203672709334636e-05 2.751938033807925e-05 -3.511512095010158e-05 -2.4197220285501085e-05 -8.8190843828462e-06 1.031738061154026e-05 -1.018280097739426e-05
0.00014334938675834253 8.109240377525919e-05 -5.710305942464664e-05 -0.00010302584568026233 -7.71973581069589e-05 1.9126446524496607e-05 4.8624829255411315e-05 8.82476021121413e-05
2.92630372614059e-05 3.0455432509677157e-05 4.0815152624189886e-05 -1.7206361386993482e-05 -4.583676452948147e-06 -3.510772709135449e-05 2.0761841340473605e-05 -1.5939502493444611e-06
0.00011821146143549836 -4.9944349006935136e-05 2.8112559692653753e-06 -3.834466544755619e-05 -8.26636684782948e-05 -1.019858535374502e-06 -1.1295040989179952e-05 5.983810129517316e-05
7.339485084376809e-06 3.6900220447260356e-05 -9.02755568451937e-06 1.3231516967092169e-05 -1.952593334923333e-05 -3.5795195565126564e-05 1.5809008641807126e-05 3.646018613943178e-05
8.25247155122014e-05 4.698292223479819e-05 5.5991535437548465e-05 -3.6995603856582346e-05 -8.560787735627038e-05 -4.2216099878090773e-05 -2.748986594633012e-05 5.294470069840838e-05
1.70221603654995e-05 1.2503702525078403e-05 -1.5203208908942335e-05 -2.7357212603928273e-05 4.935623547404419e-06 1.9751614410006875e-05 -1.950027374209349e-05 1.2761341073725205e-06
0.00011521978138915168 7.793662659674391e-05 5.767168921158479e-06 -4.176211157119044e-05 -8.438134367776893e-05 -3.732563890450977e-05 -5.612342811640352e-06 6.201819293252216e-05
4.211519451982581e-05 7.196711823232313e-06 2.825966061901262e-05 1.5536415393890253e-06 -1.6279967837909528e-05 -1.0896337670636668e-05 1.1803217356623812e-05 -2.498013879424208e-05
0.00010364052719637127 7.874303125006894e-05 -5.451539477562897e-06 -5.4271419581632834e-05 -6.357278577049608e-05 -8.358449637637078e-05 1.3196848875089023e-05 5.4313799772511726e-05
4.6651574424866266e-05 2.9117005682670168e-05 2.396653555570587e-06 -1.1330972863806265e-05 -1.7790214722928983e-05 -9.65955440955897e-06 -1.3572315883820084e-05 3.0469804646779863e-05
9.759200507809456e-05 3.7173779558720695e-05 6.7168844558355405e-06 -5.1728961815926346e-05 -0.000111735292973264 -1.029624992218482e-05 2.6935932515230482e-05 5.118154861738102e-05
2.181227442514796e-05 4.379135423328134e-05 -1.5591648023509287e-05 -5.076835431275322e-06 -1.3076530860754291e-05 -1.0052491145509718e-05 -2.3441930521289164e-06 3.2618182645183745e-08
7.804386976315177e-05 4.023527289845774e-06 -2.0802217741769648e-05 -7.563133152586687e-05 -3.6443990285263456e-05 -2.0080255759821037e-05 6.979999952873142e-05 6.904083102873886e-05
2.6313224252331518e-05 1.5245231322123258e-05 -1.1142660466187152e-05 -2.720300914830329e-05 -2.8342403355311974e-05 -3.976197273687128e-05 1.5767032126298875e-05 3.297952178131516e-05
7.688583595435089e-05 2.0455533998597138e-05 -3.115234958043739e-05 -1.2239486896901917e-05 -3.744478814586058e-05 -1.34373131046278e-05 7.570818903377452e-05 2.5871680640533616e-05
3.624241878458608e-05 8.713038462898556e-06 -2.371580045424473e-05 -2.4299305172802412e-05 -2.851863481551034e-05 1.1962729721294844e-05 3.360300483157223e-05 3.1894597138097903e-05
1.0395584125473066e-05 -7.333450281409583e-06 2.0023037750354916e-05 -5.9112504160743954e-05 -7.567662268236613e-06 -6.260092836508983e-07 1.7465649524309056e-05 7.870084975153921e-05
1.6806552204486925e-05 -9.399185526000549e-06 1.3701532879888224e-05 -2.000754662306846e-05 2.169773546577463e-06 -1.826395907426947e-05 2.0177478607303847e-05 2.4096927789972786e-06
4.142835794287978e-05 1.5591359336590967e-05 6.030340361973669e-06 1.710371981874444e-05 -1.9440201010778105e-05 -2.2193085811481414e-05 6.66782229451211e-05 -1.134735348781404e-05
8.013717674240051e-06 3.4454064719911725e-06 -1.6065865353907098e-06 -3.5607256920400705e-05 1.8323666780567492e-07 -7.326826733082668e-06 5.905196527085502e-06 1.6884000460104905e-05
3.858822089657259e-05 9.47829278412441e-06 3.6005891318080884e-05 -2.659964940370767e-05 -1.4480614397944401e-05 3.364373520178807e-05 5.3544921884328535e-06 2.1774085491479657e-05

medians f4 [96]
00000000: 3498 033a 5019 ff39 9b8f f939 2992 003a
00000010: 5cf9 043a d9a6 093a 469a 0e3a 020a 143a
00000020: 20e6 183a 3e44 1e3a 5495 263a 404b 2f3a
00000030: c66d 363a 34dc 423a e4f3 503a 7167 563a
00000040: 3cc8 623a 82d7 6c3a 5aae 733a 9068 803a
00000050: 7e8d 8d3a fc34 953a f737 9b3a e402 a33a
00000060: 1bd7 a53a 5964 af3a 0723 b13a 7e89 c33a
00000070: f14b c93a 78d4 d23a 1a01 e13a 7d11 e63a
00000080: 45dc e43a 2259 013b 8d8a 0d3b 4889 133b
00000090: c537 0b3b ee00 163b 8c82 2c3b 707e 3d3b
000000a0: fc77 463b 0eda 4b3b 5c60 513b f2c2 3c3b
000000b0: 1a1c 433b a880 313b 1010 443b 9fc4 593b
000000c0: 8c66 833b e402 953b 4820 ab3b 4a42 9f3b
000000d0: ed77 af3b 1bf6 b63b 6aa5 d33b 0c12 e43b
000000e0: 80a4 d33b ecfb e43b fa85 ec3b 6ae3 d73b
000000f0: bef8 e43b 2670 fc3b bc54 ff3b 4cea 1c3c
00000100: 74a7 1a3c dc30 433c 0cca 193c c534 1d3c
00000110: 2022 2b3c 30f3 3a3c ec9d 3a3c bacc 473c
00000120: c428 4a3c 4211 823c fb02 6a3c fdba b73c
00000130: 410d a93c 068c 9f3c 7442 b83c 46a0 ad3c
00000140: 101b 7d3c 0852 d53c b4a8 aa3c 72df a83c
00000150: 9a0e 853c a619 d23c 076d ff3c 0a16 ee3c
00000160: 7abf 343d e019 4f3d b44b 483d d6f8 5e3d
00000170: feac 6a3d bb25 613d f449 443d ac8a bb3d
0.00050199335 0.0004865625 0.00047599975 0.0004904592 0.0005072558 0.00052509975 0.00054398587 0.0005647243
0.0005832631 0.00060373906 0.0006354649 0.00066869333 0.00069591065 0.00074333255 0.0007970913 0.0008178866
0.0008651053 0.0009034799 0.0009295695 0.0009796787 0.0010799614 0.0011383588 0.001184224 0.0012436775
0.0012652607 0.0013381346 0.0013514467 0.0014918295 0.0015357715 0.0016085049 0.0017166466 0.0017552819
0.0017460665 0.0019736965 0.0021597475 0.0022512246 0.0021242958 0.0022888738 0.002632293 0.0028914474
0.0030283919 0.0031105313 0.0031948304 0.002880272 0.0029771389 0.0027084742 0.00299168 0.0033228768
0.0040100273 0.0045474637 0.005222354 0.004860197 0.0053548724 0.0055835373 0.006458928 0.006960159
0.006458819 0.0069880392 0.0072181197 0.006588389 0.00698766 0.007703799 0.0077920835 0.009577345
0.009439338 0.011913504 0.009386551 0.009595101 0.010445148 0.0114105195 0.011390191 0.012194807
0.012338821 0.01587737 0.014282937 0.02242803 0.020636203 0.019475948 0.022492625 0.021194588
0.015448347 0.026040092 0.020832397 0.02061436 0.016242314 0.025646996 0.031179918 0.029063243
0.04412792 0.050561786 0.04890032 0.054436527 0.057293884 0.054967623 0.04792209 0.09157309

threshold f8 []
00000000: e6e0 bab1 de82 d33e
4.65183509462e-06
