ParamsAlgoAP/ETH/params21.npz (npz, 15124 bytes, 3 tensors)

means f8 [96, 16]
000000 b2 b3 4a 0b 03 a4 22 3f 63 13 39 17 a2 31 23 3f
       0.00014221703681496566 0.00014643767973345897
000010 b1 7c a7 52 07 a5 21 3f 3b f7 ba 75 06 25 e1 3e
       0.0001346179427192721 8.175196561817726e-06
000020 05 43 ba 5b 46 e6 21 bf 31 11 b4 09 7d 71 20 bf
       -0.00013656243196582415 -0.00012545253125762762
000030 3d 68 78 37 ca 09 22 bf 6f 49 7f 28 bf 83 f4 be
       -0.00013762086358398872 -1.956428107503224e-05
000040 21 98 4a 32 e8 eb 3e 3f a9 35 a6 fe 85 a0 56 3f
       0.0004718248258462916 0.0013810452024672715
000050 46 95 80 b5 16 41 02 3f 56 99 81 5a 35 c1 09 bf
       3.481722404811509e-05 -4.9123230667901904e-05
000060 c0 55 c8 af 64 5f 40 bf 7f 7a d4 6e 43 db 66 bf
       -0.0004996530183826661 -0.0027900998162658226
000070 4d ae 9c 39 11 d7 4d bf 61 a9 fe cf 00 80 17 3f
       -0.0009106477839159827 8.964543303472329e-05
000080 96 77 48 40 3c 91 08 3f c8 44 6e 4b 52 ad 1b 3f
       4.6858454912020845e-05 0.00010557951723756947
000090 0d 65 4b be 53 74 01 3f 6b d7 e3 95 31 fa e4 be
       3.3291631358964726e-05 -1.0002765233423525e-05
0000a0 d6 b0 75 41 d9 fa 0b bf 22 74 91 6d 76 7e 10 bf
       -5.336738120828722e-05 -6.2919595977332e-05
0000b0 f6 86 2c b8 a8 bb fc be f4 83 c0 04 61 e2 e8 3e
       -2.7401965336021837e-05 1.1865755503550117e-05
0000c0 7d 89 f2 a3 50 cc 25 3f ba a2 3a 39 15 ea 33 3f
       0.00016630634670373656 0.0003038694205579718
0000d0 52 c2 ea bb 24 99 11 3f 60 12 06 7c a4 f9 17 bf
       6.713186938146182e-05 -9.145800050276145e-05
0000e0 f3 2b b3 b5 1e bc 27 bf ee 74 23 b6 b1 ab 2b bf
       -0.00018108248591483487 -0.00021111053781101098
0000f0 5c ec 77 31 f9 aa 00 bf 2c ef 22 a7 ee 24 1e 3f
       -3.179142930417246e-05 0.00011499125119745758
000100 e6 89 b3 9e 2c ac f7 3e 6e d8 ca 55 93 41 0b 3f
       2.257590851407502e-05 5.198698884127736e-05
000110 15 5a 4b 91 35 a4 e7 be 9e 2f 93 91 3f 50 e9 be
       -1.127311819841291e-05 -1.2070403089835092e-05
000120 5f f1 2d 0d 2e 9a f9 be ea 1f 02 3a 07 34 0b bf
       -2.4416222753385698e-05 -5.1886053598570865e-05
000130 21 ba 3c 6e 51 8f e5 be c7 87 71 9e 0e 82 f1 3e
       -1.0280531064302497e-05 1.6696963850988484e-05
000140 cd 89 31 85 72 31 30 3f d4 75 21 47 b1 91 2a 3f
       0.00024708791642616136 0.00020270623241717847
000150 b0 88 a4 ea 5d 4b dd 3e be 41 90 77 71 16 1a bf
       6.9843296535440045e-06 -9.951655910379103e-05
000160 b0 c2 58 1d d6 d8 27 bf b9 c5 37 1c 48 96 17 bf
       -0.00018193830207870665 -8.997740865603663e-05
000170 62 8f 53 68 b4 32 16 3f 15 c8 49 cb 1c 88 17 3f
       8.467889900348532e-05 8.976627106863117e-05
000180 75 8f 00 bf 1d e3 0a 3f 3e 71 8d 77 50 ce db 3e
       5.128321197414482e-05 6.629446823360882e-06
000190 50 47 1c dc 9b d2 e9 be 19 05 fb c1 c1 26 00 bf
       -1.231321846576245e-05 -3.080633927999617e-05
0001a0 c1 dd dd 9d 5b 6b 0d bf ef b9 26 85 3d 88 f1 be
       -5.611298887136683e-05 -1.6719998095099676e-05
0001b0 ba 9f 4c 9b ec 4c b8 3e 55 8c 6d 39 33 77 fd 3e
       1.4484217960106784e-06 2.810061013337432e-05
0001c0 e7 2b 99 99 1a f2 28 3f e5 76 a0 e5 dc 00 0e 3f
       0.00019032072741462168 5.722688793262184e-05
0001d0 02 1b 6c 34 4e bd e3 3e 7e fe cb 24 52 6f 11 bf
       9.412514953688944e-06 -6.650866380297248e-05
0001e0 07 64 20 44 a1 4c 27 bf 89 4f c8 5e e2 73 17 bf
       -0.00017775982456738634 -8.946484712907104e-05
0001f0 32 3f e0 bb 87 3f 07 3f 2f 0d 3a 14 ac cd 20 3f
       4.4342355508429624e-05 0.00012819982122289897
000200 a8 3d 14 6a 0d 2b 11 3f c4 03 1d a0 b6 b2 85 be
       6.54913842661394e-05 -1.616634364657704e-07
000210 d9 f9 53 72 96 64 f4 be 3a e8 e5 44 22 3e ee 3e
       -1.9448204644051607e-05 1.4420848086106012e-05
000220 1f c8 33 f9 9c 74 e6 be d4 3e 8d 6c 4e 0c 06 bf
       -1.0707626449921928e-05 -4.205335932871775e-05
000230 20 e0 60 4c d8 71 f4 3e 40 4e 10 64 72 2e f7 3e
       1.9497591687151036e-05 2.2107537237371503e-05
000240 bf 74 b1 69 0f bf 1e 3f 1c a6 6e 78 7b cd 01 3f
       0.00011728793690353715 3.3955889242886557e-05
000250 0c e2 75 eb c1 cc f1 3e ae 54 f9 0d 98 28 1b bf
       1.697524450381027e-05 -0.00010360172336139575
000260 b1 50 6d f5 d0 b7 1d bf 4e fe b9 c0 9a 36 03 bf
       -0.00011336529619871101 -3.664645927603222e-05
000270 60 2b c2 85 92 f3 f8 3e a9 16 f9 38 82 5d 1d 3f
       2.379556131918857e-05 0.00011201960864423245
000280 ff ff 7f 08 bf d5 db 3e b1 b8 65 1c 0c 21 ec 3e
       6.636368318879703e-06 1.3412995838204706e-05
000290 af 64 2c 2b 69 e9 f3 3e 84 e0 9b 23 98 08 ff be
       1.8989335056483657e-05 -2.9595920046227467e-05
0002a0 55 ce f8 44 17 7f 01 bf 43 8c b5 2b 98 45 d7 be
       -3.337182772291935e-05 -5.548442170907769e-06
0002b0 47 9b 9a e8 d6 07 c1 be fc 36 3e a9 fe 11 d9 be
       -2.030208467857135e-06 -5.977223413012588e-06
0002c0 fe 10 94 c3 ff 92 23 3f e2 11 45 c3 1e 7d 0e 3f
       0.00014933941000817153 5.8152676873510713e-05
0002d0 be 1d 9b a9 a2 78 0e bf 4a 78 12 80 20 2b 18 bf
       -5.811926275850085e-05 -9.219537607171968e-05
0002e0 22 bd e0 f2 eb d5 11 bf 41 dd 26 a4 23 fe f9 3e
       -6.803753487426683e-05 2.4788600293948864e-05
0002f0 1b 40 9f 08 dc e6 17 3f cf 5d 42 ab 16 7d 15 3f
       9.11781118297931e-05 8.19726072357398e-05
000300 b0 85 4f 14 ad 29 00 3f 99 fa 8a a4 a9 97 fb 3e
       3.0828089201194605e-05 2.63141940048903e-05
000310 9b db 67 d7 ee 7f 05 3f b1 b4 1b b5 50 71 ec be
       4.100749622531278e-05 -1.3562506555565104e-05
000320 fe 89 2d 7f e4 2d e7 be 4d 46 81 15 47 6b fa be
       -1.1052736203336248e-05 -2.5195172696895665e-05
000330 9b 90 c7 51 24 81 f7 3e 80 8c ac 09 8a 09 e0 3e
       2.2415600243422787e-05 7.647162694695989e-06
000340 94 a0 fd 77 f7 66 1f 3f df 7b f0 ac 25 9b fa be
       0.00011978993825112672 -2.5373500474153737e-05
000350 79 9d 6f 06 a4 d3 ec 3e f1 12 e4 94 9c 19 01 bf
       1.3745651996145983e-05 -3.261574839722403e-05
000360 9c 7a b5 15 7f d4 10 bf 20 13 be 14 d2 91 e6 be
       -6.420159973206458e-05 -1.0762029567742938e-05
000370 e1 ee ed 2e 9d 87 f0 be 52 ac 31 ff c8 97 00 3f
       -1.5763990571112245e-05 3.164846557342976e-05
000380 43 25 18 5a 8c be e7 3e 2d 12 da 14 44 64 00 3f
       1.1322178411726286e-05 3.126461761574317e-05
000390 b9 7a 14 26 0a 0f da be 73 7b 7f b4 4d 5f e5 3e
       -6.2128898161972415e-06 1.0191096990239925e-05
0003a0 30 9b 78 7e cd 8b f9 be 49 67 4d 75 74 06 00 bf
       -2.4362663593315004e-05 -3.056567098864858e-05
0003b0 71 04 f6 42 cb 35 ef 3e 35 20 b0 0b d0 e5 01 3f
       1.488215101974803e-05 3.4137164640013843e-05
0003c0 2c 17 87 74 51 a1 19 3f f4 d5 eb 22 26 af 10 3f
       9.77712599086993e-05 6.364507929020724e-05
0003d0 6f 12 86 0d cc 1b 0a 3f 80 f3 2b 84 98 75 ec be
       4.979816884812394e-05 -1.3570479614250083e-05
0003e0 71 39 96 e8 91 e8 13 bf 0f 96 e0 91 a7 f7 11 bf
       -7.594481043879886e-05 -6.854019417853345e-05
0003f0 a8 ff a8 c5 d0 aa e7 be 6b 44 64 10 7c 1f fe 3e
       -1.1285423331064266e-05 2.8727518860686642e-05
000400 fd 34 54 c0 51 eb f8 3e 1d 2d f5 a8 00 8e f7 3e
       2.3764816451656176e-05 2.2463510103859768e-05
000410 44 da 4c 10 43 b3 f0 be e5 53 90 fd d8 eb 00 bf
       -1.592659193080439e-05 -3.227477981952008e-05
000420 4f 3b 05 6d 85 ce d8 3e 04 06 22 ab 5f aa ef 3e
       5.914383749263212e-06 1.5099297659529165e-05
000430 f9 b6 fd 4b c3 16 f9 be 48 8a b0 04 39 72 c1 3e
       -2.3926656239784347e-05 2.079747024834049e-06
000440 f6 56 63 7e f0 8f 1c 3f 52 16 72 67 3d ff 1c 3f
       0.00010895638806415392 0.00011061489373006522
000450 a0 05 1e 8b 04 4a e3 3e 39 5a b2 41 56 3f 01 bf
       9.197774804683642e-06 -3.289682373368682e-05
000460 60 78 5d 2f 05 c3 19 bf b9 65 92 5b ac 47 02 bf
       -9.827345988131083e-05 -3.486628288236087e-05
000470 f4 12 1d 55 87 52 d4 3e d3 9f b0 f7 42 95 0f 3f
       4.845232369825261e-06 6.0239893138025164e-05
000480 e6 d3 92 19 e9 cd 07 3f 68 e8 5b 0d 7c 5a e7 3e
       4.5403171676928857e-05 1.1135795300532862e-05
000490 95 15 53 e1 e7 09 f7 3e 17 9b a6 66 a2 20 d5 be
       2.1971411190665325e-05 -5.0371832948429185e-06
0004a0 b3 af 85 98 31 26 fd be 2d cf 59 2e 7a 95 f5 be
       -2.7798837920852987e-05 -2.058400686739887e-05
0004b0 d3 a0 2f 01 e0 32 df 3e 11 19 4f a4 d4 13 f8 be
       7.438357004986752e-06 -2.296205845533315e-05
0004c0 c5 c9 4f 29 0f a8 1b 3f d2 bf 35 bb 34 03 17 3f
       0.00010550110376054193 8.778580995794032e-05
0004d0 36 1b 35 62 b8 ee ee 3e b3 da 48 6a 31 ec 09 bf
       1.4749765859035235e-05 -4.944349101203751e-05
0004e0 bb 5d 2d 08 11 3d 0f bf 32 aa 94 45 b5 5b 11 bf
       -5.958278872835893e-05 -6.621641059171497e-05
0004f0 0c 6a 86 fc b7 1a 01 3f f8 cb 29 13 a6 cc 07 3f
       3.2623996563081124e-05 4.539377041092718e-05
000500 2c 01 c9 1d d6 93 0a 3f 9e ee 28 ac fd 9e fe 3e
       5.06925314067728e-05 2.9202516780054055e-05
000510 fa 02 d5 43 32 47 d2 3e 44 8e 7d 40 f9 22 e3 be
       4.357841189517965e-06 -9.125049487308048e-06
000520 e3 30 00 cf 19 b1 f6 be 22 d8 ab fd be 2f fa be
       -2.1640586908276075e-05 -2.4973400154025664e-05
000530 34 a9 b9 75 d6 08 ed be 58 f2 75 a5 e4 86 f8 3e
       -1.3844739149966417e-05 2.3390699735769495e-05
000540 4c d0 3a 39 44 5f 1c 3f 44 1f 00 4a 1d 5b 05 3f
       0.00010823110488439417 4.073317654734604e-05
000550 0f 39 5a 34 fe 0d df 3e 5c 1d 1a ce ff a1 02 bf
       7.4040079362082614e-06 -3.5539263774582024e-05
000560 60 1a 6c de 78 fc 1d bf 16 f2 bf 10 9f 8b d6 be
       -0.00011438834881625495 -5.3752412547650534e-06
000570 df 60 24 33 74 cd 05 3f 8a ac 67 ac 26 98 08 3f
       4.1585072169948846e-05 4.690998098396636e-05
000580 bb 24 d6 45 5d 65 ed 3e 5a 16 48 64 d2 59 05 3f
       1.4017083396893723e-05 4.0723546167281604e-05
000590 59 f2 60 79 de cb fa be 22 82 a5 cc af a3 d5 be
       -2.5555003581911133e-05 -5.1592352952882965e-06
0005a0 f1 26 cf 7d 2c 15 f1 be a2 e3 28 05 0b 1a f2 be
       -1.6291341910868365e-05 -1.726315560743634e-05
0005b0 20 f1 06 48 f2 cb ba be af dd b8 3d a7 a6 cd 3e
       -1.5972057384314438e-06 3.534673380458263e-06
0005c0 7a 4a f5 f5 ea a1 15 3f 98 d7 5d 36 16 0e e0 3e
       8.252140604740081e-05 7.655633179597628e-06
0005d0 b9 db cb da 7a 9b e8 be 3f af 64 19 2b f7 09 bf
       -1.1733695680400201e-05 -4.952526357934619e-05
0005e0 71 02 c3 fe 68 8c 08 bf 9e f3 8e 75 38 18 e3 be
       -4.682250423249525e-05 -9.105020284278135e-06
0005f0 51 e8 d9 d1 23 aa 11 3f 6e f6 bb 2f 2d 5e 15 3f
       6.738513590134997e-05 8.151198192859487e-05
000600 8b 0d 11 9a af 59 00 3f 0f 7c 6e ce 50 e9 d7 3e
       3.118579048380217e-05 5.70091945109511e-06
000610 bd cb df 31 fc 3c e6 be aa fd 7a 44 ac 44 03 bf
       -1.0604011148251475e-05 -3.6751277148190764e-05
000620 2b 92 cf 62 6c f5 f8 be 4b 0d c2 05 be db 06 bf
       -2.3802456940462895e-05 -4.359887745499865e-05
000630 a3 22 29 56 71 d6 e5 3e f6 f0 98 0e 94 a0 fd 3e
       1.04130110162454e-05 2.82547561367566e-05
000640 a9 69 2c ac 4d 77 19 3f 6b c6 21 0a ce 8d 00 3f
       9.714519096030182e-05 3.157410653010787e-05
000650 3e 1a 22 4d 71 2f 01 bf ca c6 99 ec f3 17 f3 be
       -3.277840154774059e-05 -1.8209043253175965e-05
000660 f6 83 98 5d ce 71 03 bf cd 6c 11 0b 0f 84 ea be
       -3.7087545660570363e-05 -1.2643744726917317e-05
000670 7e 60 05 f7 23 92 17 3f 40 55 83 17 14 93 00 3f
       8.991570007788223e-05 3.161339822247778e-05
000680 26 cf 8c 7a 70 9a ff 3e 9a 6c 64 7b 0b ba d1 be
       3.013923529522548e-05 -4.226383614881714e-06
000690 66 fd 21 a9 0e ee f3 be b6 0c e4 a9 f7 d0 fd be
       -1.900664444365093e-05 -2.8435019538097717e-05
0006a0 b9 29 97 2f 08 ee fd be 3d 22 cf e0 ad b1 ef 3e
       -2.8543293387342623e-05 1.5112905225837386e-05
0006b0 df 86 ec e3 4e 92 00 3f f5 35 06 2e fc e5 f7 3e
       3.1607658902877685e-05 2.2791270454505412e-05
0006c0 13 65 9e 4d 12 73 e1 3e 0c 1a df 0f bc 1d f0 be
       8.320569054908724e-06 -1.536955914340815e-05
0006d0 fb 4f 4e 5f bd 96 fb 3e 22 32 d1 d2 ff aa 0a bf
       2.631075581722984e-05 -5.086510859850605e-05
0006e0 3a eb 29 a5 e9 72 ec 3e b5 56 9a 1a 7d be d8 be
       1.3565481969059918e-05 -5.899452313015069e-06
0006f0 c6 d5 28 73 9e d1 fc 3e d3 7f e9 ad f8 cc 19 3f
       2.7483772280419994e-05 9.842174356711136e-05
000700 f0 ac fc 0f c9 45 ec 3e 8e 57 92 57 7e c3 e5 be
       1.3481425866843148e-05 -1.0377715385960996e-05
000710 ce 69 c6 a0 4a 75 d4 3e 18 67 13 e5 ba 61 f7 be
       4.877607818443891e-06 -2.2298582113978218e-05
000720 a5 23 e4 87 67 32 a8 be 20 06 26 78 da ec f7 be
       -7.211235837643828e-07 -2.2816856934953817e-05
000730 02 0a 83 85 7e cc e4 3e 6b 43 1a b0 c2 dc c9 3e
       9.917643339800618e-06 3.083031857205691e-06
000740 f5 26 11 93 37 66 fe 3e 52 de 0e 97 6f 1d fb 3e
       2.8991017817759296e-05 2.58588638108722e-05
000750 b8 36 b8 e4 4c 8d e3 be c8 37 51 a5 eb 0d 0a 3f
       -9.323098445281202e-06 4.969478019543856e-05
000760 bb e9 13 d7 74 18 fd be 72 47 1d e8 d9 ce e3 3e
       -2.7747662390867458e-05 9.445196386490449e-06
000770 87 9c cd c7 bc 1e 0d 3f f1 a9 72 d3 97 cd f3 3e
       5.554212200458661e-05 1.888570588152479e-05
000780 f8 af 94 b1 3e 9e c3 be 5c bf 6a 4c 44 bc e1 3e
       -2.3386650239900325e-06 8.456905914527579e-06
000790 ea 51 40 71 7b 50 ca 3e d8 ef 61 d6 52 41 06 bf
       3.136918971700097e-06 -4.244836854724849e-05
0007a0 23 27 59 f5 61 24 ca be 00 af 7f 34 78 2a d8 be
       -3.116383519939727e-06 -5.7615987500805096e-06
0007b0 b5 d8 d2 d6 32 f2 a9 be 0d bc 1b 67 d4 86 e7 3e
       -7.732536865454506e-07 1.1218394522198258e-05
0007c0 bf 42 da 81 00 3e 03 3f 3f 39 0e 66 30 4d fb 3e
       3.670157478297608e-05 2.603675818906828e-05
0007d0 89 41 e6 eb 12 7b 0f 3f d4 50 6c 63 04 55 df 3e
       6.004477971821842e-05 7.4701543357933295e-06
0007e0 09 97 21 41 88 fd f6 be 96 65 29 bc bc 66 0b 3f
       -2.1925316169200122e-05 5.226386521845897e-05
0007f0 cc 84 43 59 94 ee d2 3e 55 f7 bf b7 bb 11 d6 be
       4.513728885964171e-06 -5.261724137282439e-06

medians f4 [96]
000000 a4 d0 07 3a 42 a0 03 3a 9b ae 00 3a 62 49 04 3a
       0.0005180931 0.00050211337 0.0004908831 0.0005046335
000010 90 ad 08 3a e7 b6 0d 3a 0c d2 12 3a 21 52 18 3a
       0.0005213851 0.0005405978 0.00056007574 0.0005810578
000020 e7 71 1d 3a be 9e 22 3a 62 38 2b 3a fd 31 34 3a
       0.00060060475 0.0006203464 0.0006531534 0.0006873904
000030 cb 02 3c 3a 82 b8 49 3a 9c 59 58 3a 60 8a 5c 3a
       0.0007172047 0.00076950353 0.0008253099 0.00084129535
000040 2e 27 69 3a 6f 68 73 3a 8d 14 7b 3a f9 dc 84 3a
       0.0008894083 0.0009285276 0.00095779524 0.0010136656
000050 cb 41 92 3a 12 6f 9a 3a c1 18 a0 3a 46 27 a9 3a
       0.0011158524 0.0011782369 0.0012214408 0.0012905381
000060 87 5c ab 3a e3 48 b5 3a 94 a4 b7 3a 93 2e ca 3a
       0.001307384 0.0013830926 0.001401084 0.0015425257
000070 b9 b2 d0 3a 48 b0 d8 3a 5a 37 e9 3a e7 39 ee 3a
       0.0015922404 0.0016532028 0.0017792985 0.0018175215
000080 1f 47 ec 3a 56 3a 05 3b 60 04 12 3b 1d 9c 19 3b
       0.0018026567 0.002032896 0.002228044 0.0023438998
000090 bf d1 11 3b 1d 58 1a 3b 56 c2 31 3b 27 da 42 3b
       0.0022250263 0.0023551055 0.002712389 0.002973208
0000a0 a4 9e 4f 3b 7b f9 52 3b 16 b0 59 3b 6e 8e 44 3b
       0.003168025 0.003219216 0.0033216528 0.0029992121
0000b0 0a 1f 4b 3b 7e 5d 3a 3b b8 d6 4b 3b e9 1d 60 3b
       0.0030993843 0.0028437073 0.0031103324 0.0034197515
0000c0 17 88 84 3b c3 5f 98 3b 1a 51 ac 3b a0 48 a5 3b
       0.0040445435 0.0046500876 0.0052586915 0.005044058
0000d0 fe 36 b9 3b b9 8c be 3b c8 2b da 3b 3a 70 e8 3b
       0.0056523075 0.0058151153 0.006658051 0.0070934566
0000e0 e7 18 df 3b ab b4 ee 3b be f5 f3 3b e7 29 dd 3b
       0.0068083885 0.007284721 0.0074450662 0.00674938
0000f0 26 8f eb 3b 9d f1 01 3c ab 46 08 3c 68 72 24 3c
       0.0071886955 0.00793114 0.00831763 0.010037042
000100 cb 89 20 3c 85 0f 4c 3c 91 ab 20 3c 46 cd 22 3c
       0.009798477 0.012454872 0.00980653 0.009936636
000110 42 d5 2f 3c ce 45 3f 3c 84 2e 43 3c e5 9a 51 3c
       0.010731997 0.011674358 0.011912946 0.012793277
000120 88 33 4e 3c 05 9a 84 3c 1e 73 6d 3c c8 a5 b2 3c
       0.012585528 0.016186723 0.014492778 0.021807566
000130 73 36 a7 3c 6d 4d a1 3c 11 13 bf 3c 16 09 b4 3c
       0.020411706 0.01969024 0.023324521 0.021976989
000140 4e eb 84 3c 37 2e d6 3c 97 a5 a4 3c 79 58 a5 3c
       0.016225483 0.026145084 0.02009849 0.020183789
000150 ed 22 84 3c 0e 3f d0 3c 9d 06 00 3d d5 57 f5 3c
       0.016129935 0.025420692 0.031256307 0.029949108
000160 9f 88 2f 3d 6f 6a 44 3d e2 80 40 3d 94 b0 5b 3d
       0.0428549 0.047953065 0.046997912 0.053635195
000170 be 3b 59 3d 6f b6 59 3d 6d 0d 46 3d 2f 72 b2 3d
       0.05303549 0.053152498 0.048352648 0.08713185

threshold f8 []
000000 69 bb b3 d5 a9 65 04 3f
       3.8904424139e-05
