ParamsAlgoAP/ETH/params5.npz (npz, 13688 bytes, 3 tensors)

threshold f8 []
000000 59 8e b8 0b 01 e6 11 3f
       6.82771814629e-05

medians f4 [96]
000000 30 11 c0 39 2d f1 c6 39 8d 6f c5 39 5c 04 cc 39
       0.000366339 0.00037945193 0.0003765788 0.0003891316
000010 5c 12 d1 39 de d8 d9 39 5b 03 e1 39 ce 18 ea 39
       0.00039877265 0.00041551044 0.00042917844 0.0004465044
000020 7a ce ef 39 b6 28 fa 39 11 24 01 3a c0 2a 08 3a
       0.0004573947 0.00047714048 0.0004926334 0.00051943585
000030 dd 4b 0e 3a 62 26 18 3a 79 da 23 3a fa 2b 29 3a
       0.00054281746 0.00058040593 0.00062505115 0.00064533914
000040 75 78 30 3a a4 70 39 3a 65 db 3d 3a 61 84 4a 3a
       0.00067318167 0.00070739747 0.000724247 0.00077254145
000050 01 22 5d 3a 2b 5e 67 3a 1c 75 6f 3a b9 64 7a 3a
       0.0008435548 0.0008825983 0.0009134577 0.0009551752
000060 12 a1 81 3a 47 0c 89 3a 75 27 8a 3a d5 b9 98 3a
       0.0009889922 0.001045593 0.0010540324 0.0011652062
000070 3f 08 9c 3a 4c 7d a3 3a 21 db ac 3a 64 19 b5 3a
       0.0011904313 0.0012473254 0.0013187864 0.0013816771
000080 77 69 b3 3a 3f 07 c8 3a 0c dc db 3a 92 00 e6 3a
       0.0013688047 0.0015260949 0.0016773953 0.0017547777
000090 23 26 e4 3a 44 91 f3 3a ee e5 08 3b fb 46 16 3b
       0.0017406385 0.0018582721 0.0020889002 0.0022930491
0000a0 c5 28 18 3b 96 9f 20 3b f8 ce 26 3b 37 aa 19 3b
       0.002321766 0.0024509183 0.0025452953 0.0023447403
0000b0 73 81 1d 3b ec 68 12 3b 7f f5 1d 3b 85 42 2b 3b
       0.0024033457 0.002234037 0.0024102626 0.0026132178
0000c0 92 3b 50 3b 96 15 68 3b 1b e5 85 3b 40 2e 7e 3b
       0.0031773788 0.0035413257 0.0040861494 0.0038784891
0000d0 a1 7c 8f 3b 2d 08 97 3b ad e7 a9 3b e6 de aa 3b
       0.0043788706 0.004609129 0.0051850886 0.00521456
0000e0 4b 15 b4 3b 50 b6 bc 3b 93 bb c4 3b 96 6b ae 3b
       0.0054957024 0.005759038 0.006003806 0.005322884
0000f0 93 a5 c3 3b b9 4e d3 3b 50 30 d1 3b 8f 7d 03 3c
       0.0059706657 0.0064485935 0.006383933 0.008025541
000100 35 4f 06 3c d6 00 0d 3c 32 73 03 3c b5 9c 07 3c
       0.008197595 0.008606156 0.00802307 0.008277108
000110 b8 59 0d 3c 4e e1 1e 3c cb 10 12 3c 59 bd 21 3c
       0.008627348 0.0096972715 0.008915137 0.009871804
000120 48 86 35 3c 10 b0 52 3c 0e b1 4f 3c 6a 2e 9c 3c
       0.011079378 0.012859359 0.0126764905 0.0190651
000130 c6 89 6a 3c 71 0f 89 3c 79 65 a3 3c b0 fd a0 3c
       0.014315074 0.016730996 0.019945847 0.019652218
000140 b8 13 6a 3c a1 63 a2 3c 14 00 88 3c 53 cb 87 3c
       0.014286928 0.019822897 0.0166016 0.016576445
000150 fa ba 68 3c c2 a0 c5 3c c4 d2 d8 3c ef 0c c7 3c
       0.014204735 0.024124507 0.026467688 0.02429816
000160 5f 3f fa 3c e9 ed f9 3c 7b c7 f7 3c 3a db 29 3d
       0.030547796 0.030508952 0.030246487 0.041468836
000170 cd 71 33 3d 15 a0 43 3d 44 2f 40 3d b5 81 84 3d
       0.0438097 0.047760088 0.046920076 0.06470052

means f8 [96, 16]
000000 24 eb 76 04 fe ff 20 3f 87 63 22 6a a0 83 21 3f
       0.00012969947623083747 0.00013362248597983633
000010 87 3c 99 08 6f fc 22 3f 9f 0f 11 87 33 89 ef 3e
       0.0001448522128151034 1.5037509202404766e-05
000020 16 26 b0 c9 8b 2d 1f bf e1 a9 26 44 64 b5 1b bf
       -0.00011893430421152542 -0.00010569977260980287
000030 2d 61 93 d9 e9 fa 20 bf 26 8d 13 07 4a 07 f0 be
       -0.0001295481168088834 -1.528594333856134e-05
000040 4d 77 58 81 04 e6 3a 3f 1c 07 53 13 62 30 58 3f
       0.0004104386328850254 0.0014763791817106802
000050 54 16 af 01 9b 9c 34 3f 64 fd 21 ce 9e 20 05 bf
       0.00031451019611625675 -4.0297361707959304e-05
000060 e5 b2 60 d2 de 43 3a bf a6 9f a2 74 c5 23 4b bf
       -0.0004007739065652729 -0.0008282388819411581
000070 d9 7c 9e c6 4c 9f 4c bf 80 1e 6d a1 0c 46 11 3f
       -0.0008734822160824343 6.589366999520431e-05
000080 1f eb 58 96 b9 cd 0c 3f 53 75 21 7a d2 31 1a 3f
       5.493853204226726e-05 9.99245371828457e-05
000090 fa 14 88 42 37 6b f4 3e c7 86 79 2b c4 25 ed be
       1.947289652727989e-05 -1.3898622781730205e-05
0000a0 76 a6 04 d2 6c 97 06 bf ee b1 6a ab 76 f0 10 bf
       -4.308987468200087e-05 -6.461834241617396e-05
0000b0 30 c1 57 d0 23 dd f6 be bd 26 99 18 84 77 af 3e
       -2.1804645276847143e-05 9.377854876615419e-07
0000c0 f7 f5 12 65 21 15 21 3f 37 ea ce b8 ec 9b 2d 3f
       0.00013032944347017548 0.0002258993594333612
0000d0 37 35 5c 8a b2 47 15 3f 98 41 b3 f3 ef 4c 13 bf
       8.117701744599503e-05 -7.362570333958038e-05
0000e0 68 67 11 b7 a8 39 23 bf 7f f7 f5 36 8d b4 20 bf
       -0.00014667686949359636 -0.00012745117008344448
0000f0 e9 1c 0c b9 7e 30 fe be 76 49 3e 10 5c f9 19 3f
       -2.8790887486554546e-05 9.908317957599784e-05
000100 02 cf e6 b7 82 04 f0 3e fc 00 25 06 9d d9 00 3f
       1.5275592426268997e-05 3.213892411446821e-05
000110 1a f3 2b e4 f4 49 f5 be 5c aa 17 1f 73 21 ea be
       -2.0302670473692967e-05 -1.246007102203189e-05
000120 4d ba 63 a5 3a 6d e2 be 97 16 16 09 44 1e 05 bf
       -8.786523875118106e-06 -4.027981880043196e-05
000130 b0 3d bc 37 50 30 bc be be 2f e1 53 d1 40 cb be
       -1.6801788821940856e-06 -3.2488339050447816e-06
000140 e9 4e 86 e0 98 08 2b 3f 12 56 da 9e 71 5e 26 3f
       0.00020624986815375522 0.00017066132516123427
000150 94 13 49 a9 be 78 ef 3e 58 a2 90 80 3f 5c 14 bf
       1.5006856565533297e-05 -7.766854845726293e-05
000160 50 4d 56 7b 14 fd 23 bf 4f 19 c4 cd 31 ae 16 bf
       -0.00015250086805150076 -8.65190408526385e-05
000170 de 18 6f c7 bc 7d 08 3f cd cb c6 3f b7 21 16 3f
       4.671318395525909e-05 8.442574466620209e-05
000180 2d b9 20 02 d7 3e 09 3f 0d 26 63 70 e6 bd e3 be
       4.8151909382775734e-05 -9.413622603554454e-06
000190 d8 d4 31 32 69 b6 f1 be 3e cd 76 8a 8e 98 04 bf
       -1.6891997017561038e-05 -3.928360939244945e-05
0001a0 d2 c1 b1 29 5d cb 08 bf dc 94 f0 ac 4c c2 e6 be
       -4.7291546445008375e-05 -1.0852328527442166e-05
0001b0 79 4d fc f3 c2 25 e8 be 8a 7f c1 89 cd 6f 02 3f
       -1.1514428137660307e-05 3.5165271783154406e-05
0001c0 17 75 6f ff 63 03 24 3f f8 64 99 7a e9 ef 10 3f
       0.0001526889388675865 6.461012403615244e-05
0001d0 ba 79 23 05 d5 84 fb 3e b2 0a 36 13 9f 48 0a bf
       2.62440447124036e-05 -5.0132135949195424e-05
0001e0 63 c0 7e 5b 63 72 23 bf 20 e4 7c a0 e1 f0 17 bf
       -0.00014836752756997298 -9.132744901031763e-05
0001f0 a5 f2 99 73 30 4d 03 3f 11 da fb 69 15 26 1d 3f
       3.6814728855615466e-05 0.00011119371128729567
000200 c7 d1 30 bc 8c f1 0c 3f 20 6d f3 35 36 46 d5 3e
       5.5205447573678265e-05 5.072179958899651e-06
000210 cd 83 af ff ef d5 01 bf ff 35 db 00 d4 e4 fa 3e
       -3.4018885308524303e-05 2.5647983469314833e-05
000220 cb 84 ac 80 11 3a df be 49 fe 4e 33 34 a2 01 bf
       -7.445056335681972e-06 -3.363344004680671e-05
000230 69 82 ed ab a5 1a fc 3e 76 25 9b 5e c2 3e f4 3e
       2.680214924611e-05 1.930728277591472e-05
000240 53 c2 4b ad c7 c5 1f 3f 72 1f fc 2e 5a 89 01 3f
       0.0001212027667170182 3.3448280985891735e-05
000250 a8 3f 6a 6f e9 bd f5 3e 46 ff 3e 27 23 66 15 bf
       2.0734637440400196e-05 -8.16306072115555e-05
000260 62 d1 d4 cd 62 ee 1a bf d4 e9 2f 88 f5 d9 04 bf
       -0.000102734356421779 -3.977089456693212e-05
000270 39 41 80 a4 20 9b f9 3e f1 5f 34 10 40 f3 17 3f
       2.441975291850413e-05 9.136274825427539e-05
000280 4a c7 5d f8 4d 1d cd 3e 1b e7 18 b0 07 9b f6 3e
       3.470715401237514e-06 2.1558366830576937e-05
000290 15 21 e8 8a 18 07 ec 3e 76 80 70 8f d8 01 05 bf
       1.336465751668228e-05 -4.006807460421671e-05
0002a0 29 1e ca e5 6c 09 f0 be 3d 61 fe e8 ad 51 c2 be
       -1.529390134405291e-05 -2.1838021168724086e-06
0002b0 77 50 7b c6 e5 38 e4 3e 27 6c f2 6c a8 78 f1 be
       9.642723127902188e-06 -1.6661949129397884e-05
0002c0 60 a8 89 17 e4 b5 20 3f 17 26 d1 df e4 b0 09 3f
       0.00012749108624926769 4.900167912376076e-05
0002d0 75 71 dd b7 4a ec 07 bf 56 7c 68 f7 a0 c0 11 bf
       -4.562953016204716e-05 -6.772024594468967e-05
0002e0 40 75 1c 68 ae 8f 14 bf cb 9b 0e 0f 81 eb ed 3e
       -7.843496316835719e-05 1.4266938224439648e-05
0002f0 08 a4 3a c1 8a 96 12 3f 53 b8 4d 2e ab a6 13 3f
       7.090780155273601e-05 7.496280484328823e-05
000300 60 ef 71 aa 4b 92 fb 3e 56 44 fe d3 05 ef f3 3e
       2.629420000886619e-05 1.901024120304727e-05
000310 3e 10 45 98 a3 c5 0b 3f 72 19 3f c5 2d 69 e9 be
       5.2970938698965607e-05 -1.2116839719922212e-05
000320 78 48 5f 43 1d 39 82 3e 71 27 3e ce 13 a5 00 bf
       1.357726959182235e-07 -3.174750034336163e-05
000330 62 59 4d a6 00 5b db be 35 e7 09 26 7a 8f df be
       -6.522054353327819e-06 -7.524599454295131e-06
000340 28 b2 3f a4 99 ae 1d 3f 8b 3d f7 64 d4 cc e4 3e
       0.00011322796586883037 9.918268147139964e-06
000350 5c 76 c5 43 e5 0e e4 3e ef d8 2e fe 93 ae 03 bf
       9.564488316622637e-06 -3.754033220764059e-05
000360 99 15 43 c1 4c 37 0d bf 64 83 32 4a ab 0d cb be
       -5.5725126146859146e-05 -3.2250159889977493e-06
000370 be 5b 84 66 72 32 f3 3e 45 cc 5d d0 85 c2 ff 3e
       1.8307741272396065e-05 3.028855737547918e-05
000380 15 5b de 5d a2 1b 9d be 5b e3 7c b2 a2 e9 ff 3e
       -4.337421993737121e-07 3.043426400426166e-05
000390 56 2b 56 54 bb 1e d3 be 8e 23 97 e3 56 4a fa 3e
       -4.55857418070023e-06 2.5072468110373977e-05
0003a0 af 98 0b fd 33 fd ca be 54 89 73 5b a6 88 e7 be
       -3.217348400463738e-06 -1.1221784787133919e-05
0003b0 af 72 4d 61 b0 20 c0 3e f4 7f 9f 8a 97 05 02 3f
       1.9225706275174388e-06 3.437393873162434e-05
0003c0 89 42 8a 70 1f dd 15 3f a4 07 af 03 30 16 10 3f
       8.340362922810476e-05 6.136577660156725e-05
0003d0 92 81 db e7 6e af f6 3e 2c fa 8c e3 54 2d ea be
       2.1634374653413365e-05 -1.2482202792815892e-05
0003e0 0a be 86 3e 6a 6b 10 bf fa 4d 5f ac e9 3a 11 bf
       -6.263576472664164e-05 -6.572772244278066e-05
0003f0 2c a4 e2 e7 67 ea d0 3e 79 d4 0f 24 49 4f ff 3e
       4.033004755190711e-06 2.985926608186195e-05
000400 fc 0e ef bb 3f c6 e9 3e a8 a8 09 16 5e 32 f3 3e
       1.229019642135604e-05 1.8307445659373215e-05
000410 a7 8c 3c aa f9 20 fc be da 90 1c ce 60 78 fe be
       -2.6825723252643524e-05 -2.9058673027952026e-05
000420 b7 45 d5 8c fe 86 6d 3e c3 f6 ab b2 d5 36 ce be
       5.499892239780813e-08 -3.6018131103200377e-06
000430 36 b4 5b d9 3b c9 9c be b2 c6 95 a0 10 d2 c9 be
       -4.2894586137107154e-07 -3.078051353960114e-06
000440 54 95 32 48 71 6f 18 3f 06 21 dd 90 55 df 16 3f
       9.321335714903195e-05 8.725127937936694e-05
000450 b2 a6 08 04 ef f6 f9 3e 17 f7 1c 34 a2 ac f3 be
       2.4761757460612078e-05 -1.876292231561054e-05
000460 ce 51 57 72 ab 0f 14 bf ed 15 fe b3 86 b0 ed be
       -7.652744223857826e-05 -1.4157083228170736e-05
000470 a3 50 65 bc 99 4b e7 be e2 9d d6 5e d5 95 0a 3f
       -1.1108071600908763e-05 5.0707410859825654e-05
000480 d7 89 d9 c8 6f 6a 04 3f 7d 91 84 60 ed f6 c5 be
       3.893998755867864e-05 -2.6183795435332867e-06
000490 86 cf 43 b7 24 c5 05 3f d7 5b 65 e5 e8 b8 c4 be
       4.152315423935821e-05 -2.470291103378007e-06
0004a0 8c f6 e2 8c db fa f5 be 2b 60 63 db 2b 83 d2 be
       -2.0961678097056307e-05 -4.413697231885097e-06
0004b0 02 33 cd b0 d5 e6 ef 3e 4e f3 3e fa 48 de ec be
       1.5211915092594369e-05 -1.376547863418125e-05
0004c0 69 6f f5 8a c3 34 1b 3f e7 2b 4d 61 18 0a 15 3f
       0.00010378306864339066 8.025907329771397e-05
0004d0 9b 14 28 52 d2 2e d8 3e e6 37 da 8c 5a 6e 02 bf
       5.765651879934302e-06 -3.5154474614093424e-05
0004e0 c3 d6 28 e4 d4 b7 0a bf 2b de ec f9 16 21 14 bf
       -5.096071665315401e-05 -7.678702102686316e-05
0004f0 c6 a7 ef bd 82 a9 f9 3e 00 58 bf d3 cd 85 f8 3e
       2.4473334516196347e-05 2.3386642382515477e-05
000500 12 9f 3f 2f 13 91 07 3f b4 08 ef fe 7a d1 04 3f
       4.494991108555507e-05 3.9707723650932e-05
000510 94 48 40 91 84 4d a9 be 6a 4e 88 37 0b bc fb be
       -7.54082324141172e-07 -2.644972434680122e-05
000520 0c 18 5d 1c 56 7f f7 be 82 0d 49 ce e7 44 f3 be
       -2.2408874222244786e-05 -1.837650497039717e-05
000530 49 2f 23 51 13 02 f6 be a3 02 2b 46 66 df f7 3e
       -2.0988566640053265e-05 2.2766737297843576e-05
000540 ac df 2d dc 15 d0 18 3f 60 31 ad 42 f7 dc 07 3f
       9.465344832715214e-05 4.551534251237793e-05
000550 2c 9e 93 ea 28 c6 e2 3e ce 40 6c f6 c6 5e fa be
       8.952170292577428e-06 -2.5148604801351203e-05
000560 fa 64 10 eb 40 02 18 bf ad ca e6 a8 0d b1 d3 be
       -9.158631543506107e-05 -4.694846792596225e-06
000570 68 ea 96 22 81 04 ff 3e 68 d4 bd 4a b8 aa 09 3f
       2.9580684133038304e-05 4.895567812372091e-05
000580 9f c1 a4 93 6d 0e df 3e ef 6d e6 5f 83 80 03 3f
       7.404413106024484e-06 3.719712184421439e-05
000590 ef 77 f4 62 c8 e4 f5 be 94 70 e6 f2 07 7d c4 be
       -2.0879442840564198e-05 -2.442407910764326e-06
0005a0 9f c9 b8 a5 7e 76 e4 be 1d e8 83 e8 5e d1 f7 be
       -9.757456772428739e-06 -2.27144760467161e-05
0005b0 72 44 b5 c7 d5 f0 fb be f5 17 d3 cf 65 fb c4 be
       -2.6646387124633045e-05 -2.5012519687421126e-06
0005c0 cb ff 0d f3 ba 5b 14 3f 6e 03 de e7 bc ef dd 3e
       7.766083287030695e-05 7.137412124325804e-06
0005d0 c9 c4 29 49 3f d3 ea be fe ad 92 68 ab 59 06 bf
       -1.279124470452072e-05 -4.26297602385793e-05
0005e0 53 9e f0 81 81 96 02 bf c3 43 af 42 5c d0 e4 be
       -3.545363164675062e-05 -9.924844638494156e-06
0005f0 df d7 e1 d2 0b b5 12 3f 67 52 80 fa 7b 83 13 3f
       7.136234919066741e-05 7.443851666295299e-05
000600 4a 80 1b aa 55 b4 f8 3e 2b cb 50 23 1e 45 ef 3e
       2.355998242975524e-05 1.4910693702051961e-05
000610 a0 60 6b d8 b5 54 e0 be 72 42 49 2b 3c 7b 02 bf
       -7.787179823124095e-06 -3.5250447954941833e-05
000620 d2 b0 29 c7 b1 8d ef be 57 b9 66 d9 74 81 02 bf
       -1.5045878375384925e-05 -3.529680104762355e-05
000630 0a 5f b2 8a 69 af f1 3e 88 6b a0 08 5a 36 fe 3e
       1.686592501623424e-05 2.8812705331042753e-05
000640 d9 d4 0c 0c 8c e5 15 3f e2 01 96 1b b5 f8 fe 3e
       8.352916030392471e-05 2.9536736950943022e-05
000650 41 2a 8c 69 fe 2d f3 be f0 0f 38 f5 2a 28 f1 be
       -1.8291152261299416e-05 -1.636210011037026e-05
000660 20 37 f7 78 e9 df 06 bf e5 b1 53 d4 50 c9 ff be
       -4.362994433969162e-05 -3.0313863381191664e-05
000670 ff a1 ca 00 27 21 10 3f e8 f7 b6 d7 fa 8f 07 3f
       6.152916484814668e-05 4.4941752061586186e-05
000680 1d 85 d5 b7 da c2 05 3f db 95 01 3f 2c 94 e4 3e
       4.150609945941851e-05 9.812736579027412e-06
000690 90 78 38 42 e7 df 00 bf 80 f4 c8 f3 ce 80 01 bf
       -3.218578811135895e-05 -3.3384624178436385e-05
0006a0 4c 1f 6b b6 6e a9 f8 be b8 1d 10 c9 77 4a b8 be
       -2.3519368734153335e-05 -1.4478498864283774e-06
0006b0 be 18 a5 cb d8 7b fe 3e 0d 9e ab ee 36 f0 e1 3e
       2.907159498846049e-05 8.553666210399922e-06
0006c0 b4 a3 41 b8 cb ba b0 3e 97 94 ee bf 6e e5 f0 be
       9.971660981605771e-07 -1.6113492161591398e-05
0006d0 d7 7b 7e 84 6d f0 fb 3e 44 05 26 d6 5d 61 0a bf
       2.6644869904775825e-05 -5.0316501773126884e-05
0006e0 81 51 ff fb d3 1c ec 3e 29 9d fd 3e 78 a8 da 3e
       1.340513688311766e-05 6.355782701784269e-06
0006f0 43 bc ed e2 5e 52 07 3f 24 86 de 84 4c 83 18 3f
       4.448272772249924e-05 9.350924048458963e-05
000700 94 fc b5 a4 2f 65 ef 3e 31 bb 36 8d f3 b6 b0 be
       1.497042571574199e-05 -9.96271002455962e-07
000710 36 2c 08 17 2c 87 f1 3e ff 18 b5 f4 32 e4 f1 be
       1.6716019162681994e-05 -1.706257107272294e-05
000720 88 e8 87 bc b4 05 d5 be 2a 21 14 f8 5f 53 fc be
       -5.0121042893762805e-06 -2.701347648773157e-05
000730 6d 01 10 44 ea dc c5 be a3 ec 8c b4 0c 44 ed 3e
       -2.6062666909078427e-06 1.3955029901083145e-05
000740 d1 a7 8f fa bf bb fc 3e 27 8a 9d d7 36 80 f3 3e
       2.7402303803748647e-05 1.8597447229660093e-05
000750 c2 df 41 e6 c6 3a e0 be bb 2e 0d 67 4a 3e fa 3e
       -7.738875133819662e-06 2.5027582924593293e-05
000760 f3 94 c6 87 8c 18 f8 be 99 3c 3c a4 73 b2 f7 3e
       -2.2979635547000628e-05 2.2599293756417162e-05
000770 ad 13 63 10 e5 92 0c 3f ff d8 f8 6a 3d 75 d4 3e
       5.450021312606384e-05 4.8775597601329124e-06
000780 5f b0 f2 32 45 ef eb be 14 84 16 f6 e4 db de 3e
       -1.332027895125531e-05 7.357349973175827e-06
000790 7d f2 14 4b 4e 13 c6 3e ea 6f ee 3f 2f bb 07 bf
       2.631594349237965e-06 -4.526365227450187e-05
0007a0 00 c2 06 c9 71 14 db be 8d 19 b0 1c 92 ed d0 3e
       -6.45634203559663e-06 4.035952268394139e-06
0007b0 95 a9 a8 f5 27 5d e5 3e 65 9e c9 77 4f 1d e8 3e
       1.0187097065535159e-05 1.1498686711421816e-05
0007c0 34 87 ca 97 35 1b 0a 3f cb 23 83 82 f8 2c f0 3e
       4.979378988890921e-05 1.54263181293723e-05
0007d0 76 aa f5 31 ff 6e 0b 3f d3 33 35 25 f2 65 d1 be
       5.2325404108118196e-05 -4.148060344388995e-06
0007e0 9c 4a b2 16 d2 0a e4 be c5 2b 22 95 ff 8c fb 3e
       -9.556898211725722e-06 2.6274466400393542e-05
0007f0 54 5c 55 56 cc db d1 3e 38 b1 d8 aa 62 80 cf be
       4.257818863115973e-06 -3.755272095748226e-06
