ParamsAlgoAP/ETH/params24.npz (npz, 15092 bytes, 3 tensors)

means f8 [96, 16]
0	0x3f21933ca19705fe	0.00013408770682414578
1	0x3f25dd7f479c225b	0.00016681841571421465
2	0x3f21ada268b27b32	0.0001348744156972281
3	0x3ec1e9093e81ba00	2.135073817347748e-06
4	0xbf217d206e4671ff	-0.00013342877276735496
5	0xbf20194a202efca0	-0.00012282399992888816
6	0xbf1db0168570a188	-0.00011325013598251752
7	0xbef5554eb5fcebae	-2.03449557141068e-05
8	0x3f3c7dac8deb7c55	0.0004347368502929984
9	0x3f58b2b5ef6213ed	0.0015074516973367883
10	0x3f32dd0dfc3bf74f	0.0002878340858244359
11	0xbf09ccb69fe61af7	-4.920894933762258e-05
12	0xbf3da49cb16b0b76	-0.0004523165274969357
13	0xbf69ae2eed803220	-0.0031348148877497067
14	0xbf4397bb459cb5a8	-0.000597921792381652
15	0x3f19cdd7790f5711	9.843471185829964e-05
16	0x3f0a1e85931419fa	4.981846940137545e-05
17	0x3f1de835a73d5253	0.00011408641313199437
18	0x3f01b2433c4fa001	3.3753086917276416e-05
19	0xbee8c433fc291e18	-1.1809548486798333e-05
20	0xbf09cd245a24c413	-4.921214282872107e-05
21	0xbf0f136327f39090	-5.9272254469695394e-05
22	0xbefb8cf86615b039	-2.6274361862574562e-05
23	0x3edeee096deddeb5	7.374246449802221e-06
24	0x3f24264f0a281222	0.00015372958030481035
25	0x3f342bd0a848021c	0.00030778736280015636
26	0x3f101e5e93871b1e	6.148769614986975e-05
27	0xbf17d8489147cade	-9.096091191177931e-05
28	0xbf23b54e09455d81	-0.00015036180105696895
29	0xbf2cd864e86ec5fa	-0.00022007209574108328
30	0xbefd0bf0e2938bd5	-2.7701038708093644e-05
31	0x3f1ee583291476b2	0.00011786091842621685
32	0x3ef52fbd26017c46	2.0205001760916873e-05
33	0x3f0c596d531bd3a8	5.407204515776111e-05
34	0xbed9c3fa0b66c6b2	-6.142982036315478e-06
35	0xbee9932500db0345	-1.2195007026762103e-05
36	0xbeff3329f0135390	-2.9754503889051524e-05
37	0xbf09e8d8cf2792f3	-4.9418560496927286e-05
38	0xbee08246228169d1	-7.872048698388905e-06
39	0x3ef23ebf8093f0e1	1.7399892418432857e-05
40	0x3f2f48dce65d3059	0.00023868271380889336
41	0x3f27c8a40b83724c	0.00018145563604478538
42	0x3ef10bed9a91eca0	1.6256899162386666e-05
43	0xbf197f16f7c81953	-9.726121601980513e-05
44	0xbf23a30205a37805	-0.0001498165100377037
45	0xbf1688de3d03a66a	-8.596283373987217e-05
46	0x3f15683889584b71	8.166165419991129e-05
47	0x3f16e925c8989a89	8.739750969564466e-05
48	0x3f0b3aa5e8c70442	5.1935375356311933e-05
49	0x3ecc514a4ab49de0	3.375713807724409e-06
50	0xbeda111d8b1d759d	-6.214823018738626e-06
51	0xbefed7a8b5008cc9	-2.9413621916896103e-05
52	0xbf0d779f72295756	-5.620436993029772e-05
53	0xbef46596368ca8e8	-1.9451926536331274e-05
54	0x3e9540f8e232ae27	3.16706264944928e-07
55	0x3efdc458738fc958	2.8387999211740067e-05
56	0x3f269d09139502d9	0.0001725267009451612
57	0x3f12188c15763b1f	6.903033260228758e-05
58	0x3efffb0e9c9afa84	3.0499164302306387e-05
59	0xbf10b5c33e049b02	-6.374363102122293e-05
60	0xbf251ee72b866e4f	-0.0001611382665601562
61	0xbf13d8b1be4dd14e	-7.570824489084202e-05
62	0x3f04fed3a99f0d5c	4.004558031980396e-05
63	0x3f2046c63c29240a	0.00012417955265878216
64	0x3f10eb9ade140e29	6.454594360510352e-05
65	0x3eba2f33f0d3e177	1.5607110442333972e-06
66	0xbef56161865345ce	-2.0389932974767583e-05
67	0x3ef112a6723b6dcc	1.628194071555209e-05
68	0xbee01bb8cebff306	-7.681030602663043e-06
69	0xbf07da42ae47f572	-4.5495185791092916e-05
70	0x3ef93edc456e3f00	2.407603127668658e-05
71	0x3ef848c765fc522c	2.315930612358152e-05
72	0x3f2054563dd39f02	0.00012458374741374656
73	0x3f0e406fda5abda3	5.770055149178644e-05
74	0x3ee2290a9b592c61	8.659514473616054e-06
75	0xbf1a6f3d54ef2f8b	-0.00010083972777791114
76	0xbf1ddb41a6c5ab44	-0.00011389339642213248
77	0xbf0660a03cc478fd	-4.2681589180514395e-05
78	0x3ef0ea8105155139	1.6132384478355028e-05
79	0x3f1e591a3c21693c	0.00011576864838628171
80	0x3ee45b030d5e58e2	9.706266080472225e-06
81	0x3ee9d5b4782c0189	1.231898545972565e-05
82	0x3eedd40f8f1850f4	1.4223271565895892e-05
83	0xbf02322434fc5185	-3.470585818213509e-05
84	0xbf02f973bb301e95	-3.6190838180569545e-05
85	0xbeef89d4f91eba01	-1.5038683873172707e-05
86	0xbed775f58ffc691a	-5.593485411537511e-06
87	0xbeb9ff8f8abc4a8c	-1.5496184841464089e-06
88	0x3f2415efecb267e9	0.0001532416702943456
89	0x3f08c2cf19540bfd	4.7227807195703e-05
90	0xbf100b1154c9bdc3	-6.120007783193882e-05
91	0xbf13716d026b4f0e	-7.416942444687607e-05
92	0xbf10fba2ce6bccbd	-6.47848242854463e-05
93	0x3ef4c166fd2e12c1	1.9793966042696733e-05
94	0x3f18f8fa5e8a56a2	9.526279576229727e-05
95	0x3f187ab389478b2a	9.338112642568995e-05
96	0x3f019e4f523e189d	3.360442704462947e-05
97	0x3ef5fbf956d58dfc	2.096583687228973e-05
98	0x3f08497b14d8dd1d	4.632384171226521e-05
99	0xbeef0743117435da	-1.4795478405572644e-05
100	0xbef317192a496a6d	-1.820585989018924e-05
101	0xbef40a650e23c921	-1.911220977830156e-05
102	0x3ef8594675a896cb	2.322075975249339e-05
103	0x3ee8e03b8abbd995	1.1861757534853404e-05
104	0x3f1d7ba50f09f3b7	0.00011246867121346328
105	0xbeed441cec8eb815	-1.3955147908219953e-05
106	0xbee02f17f75b236b	-7.7171132305696e-06
107	0xbf03fd094db06b00	-3.812489168116516e-05
108	0xbf0af8b28f304132	-5.144400520163058e-05
109	0xbee54fb2b1b79f0d	-1.0162029460538823e-05
110	0x3ee68762e0e74670	1.0742594011600731e-05
111	0x3f03e364434fd7a4	3.7933823854460134e-05
112	0x3eef8a5564d77d74	1.5039618257383097e-05
113	0x3eff5ab7d001ab90	2.9901854759744088e-05
114	0xbeda7d07d6998cca	-6.315326893965853e-06
115	0x3ee53785f6dac656	1.011700052386541e-05
116	0xbef7202a60b6e920	-2.2054335244916655e-05
117	0xbf008ce48fece918	-3.156731144434067e-05
118	0x3ee4191f5d402230	9.583537497818544e-06
119	0x3f05262ccf5ef5f1	4.0338747495632136e-05
120	0x3f160d61c393629d	8.41227455511497e-05
121	0x3f10524d2ce72ad9	6.226154366754544e-05
122	0x3f0702da5df9973a	4.389027503463737e-05
123	0xbeecc7123d3f3234	-1.3722239522361968e-05
124	0xbf10e9594a8a04a1	-6.451232423822447e-05
125	0xbf081cf4437234cf	-4.5992092446581216e-05
126	0x3ee9d04a5e9efdc0	1.230890025627387e-05
127	0x3ef6d4235c7db56d	2.177111107875189e-05
128	0x3efbc2bc91b8c0a2	2.647465690425232e-05
129	0x3eed9ba579aec271	1.411819157745681e-05
130	0xbee5a4f43c40f626	-1.0320831172912106e-05
131	0xbefd2452ee1b28ae	-2.7791872418338782e-05
132	0x3ee610c0d9001176	1.0521622954236887e-05
133	0x3eeabba70f73e907	1.2747296280303273e-05
134	0xbeeea997f4e7a3e6	-1.4621007406527856e-05
135	0xbecfcce0365eba40	-3.7908907186336865e-06
136	0x3f19151e4cde0ecb	9.568211973314947e-05
137	0x3f1f3ee8854fb5ed	0.00011919302171722159
138	0x3ef0c3497473bd0a	1.5986289580047427e-05
139	0xbf02edc8ad190767	-3.610390343712529e-05
140	0xbf17185afa0c1fbd	-8.810096052169667e-05
141	0xbeeb2968fad5695f	-1.2951735551315525e-05
142	0xbe9ff9e20ed9228a	-4.7648110421521685e-07
143	0x3f0dff049006030a	5.721314119267434e-05
144	0x3f03e23bfee6fd83	3.7925201343376305e-05
145	0x3ed97ea87756c09e	6.0784239982876415e-06
146	0x3ef690de61985181	2.1520512836729816e-05
147	0x3e94c26d4536e420	3.093403552995419e-07
148	0xbefeacad45c77cbe	-2.925350087134843e-05
149	0xbef53eb5352efb9f	-2.026076556282572e-05
150	0x3edf1f3660012880	7.420044767123446e-06
151	0xbef6623361960c2c	-2.1346661104992292e-05
152	0x3f1c589fbb3831bf	0.00010813212320943173
153	0x3f13c90a37d6bf84	7.54749762197343e-05
154	0x3f0134341da0fe62	3.281387371645014e-05
155	0xbf04c3c29867fd62	-3.9605499342338824e-05
156	0xbf0db490948733ca	-5.6658422696288425e-05
157	0xbf0cc478c039b607	-5.486958982890357e-05
158	0x3f021c95539f891a	3.454523762493247e-05
159	0x3f070cb7425e4ace	4.396375906802961e-05
160	0x3f094d053990a0b6	4.8257562589805304e-05
161	0x3f01b9d1edf87d85	3.380939392294127e-05
162	0x3ee2c7870176c58a	8.954717528239135e-06
163	0xbef1a48fd4609864	-1.682550398398492e-05
164	0xbef65f7fedf00190	-2.1336599157707715e-05
165	0xbef2b4fa247572b5	-1.7840330000284526e-05
166	0xbee91bb6bcfaf841	-1.1972549969537754e-05
167	0x3ef317ffc743fa43	1.8209215753901017e-05
168	0x3f1bcf959e9e7322	0.00010609007554624993
169	0x3f02f449e9c3a251	3.6152368211809915e-05
170	0x3ee713b317aa27d7	1.1003947965510588e-05
171	0xbefb0dbe61bfb14a	-2.5800405737118067e-05
172	0xbf1a39501894e3be	-0.00010003615729638115
173	0xbe926ffc932d2a9e	-2.7473938073579477e-07
174	0x3f007bb5c91e5453	3.143929019625764e-05
175	0x3f08bd8178cf7bcf	4.718829504900929e-05
176	0x3ee3d8114ebd7554	9.462363287300137e-06
177	0x3f0435492c506f2a	3.854398304545114e-05
178	0xbef7d09a351fb16e	-2.2711613674107475e-05
179	0xbed9ee41e29559fb	-6.182358938863846e-06
180	0xbef2a16eff3c6fd0	-1.7767524652531456e-05
181	0xbee7ad38799c8542	-1.1289903159519336e-05
182	0xbebc422ceb47e45f	-1.6843377298443884e-06
183	0x3eea7c98a7dd6c45	1.2629844828351603e-05
184	0x3f143640ab5e9cd3	7.71023722721976e-05
185	0x3ee31c3410fe8015	9.112438902836342e-06
186	0xbeb215f1b891b782	-1.077992893418434e-06
187	0xbf057ad3573e6f92	-4.0969442948595534e-05
188	0xbf05320e18956a17	-4.042726056737252e-05
189	0xbed3d9e1ff91e8f1	-4.732872178720422e-06
190	0x3f0c851fe7f63ce7	5.4397617527896136e-05
191	0x3f15e85129e124a0	8.357043631791955e-05
192	0x3f014ad912061183	3.298258730225197e-05
193	0x3edcef063d8dd127	6.8983290127842546e-06
194	0xbee25548f22365ca	-8.74192443627271e-06
195	0xbf047a9d4af7d14a	-3.90605213133355e-05
196	0xbef87965319e5c42	-2.334041628379255e-05
197	0xbf063ba8e8c508ff	-4.240617008345777e-05
198	0x3ee86cb07cd09809	1.1646541588982583e-05
199	0x3ef54209003f8061	2.0273160785566953e-05
200	0x3f18988235b2e1c1	9.382529008206739e-05
201	0x3efc9e122de1b079	2.7291741269073043e-05
202	0xbef9daef24db3602	-2.465745119799822e-05
203	0xbec3ee87eddc765b	-2.376051141518907e-06
204	0xbefa4160c2c4c1a4	-2.5039084151136406e-05
205	0xbee777a9c7808880	-1.1190144718457385e-05
206	0x3f17050142755c8d	8.78126162339057e-05
207	0x3efe5d9762832636	2.8958884428919976e-05
208	0x3efeed586a209a04	2.9494409894104484e-05
209	0xbee0da0b1cd758ff	-8.03553202903236e-06
210	0xbeea2e26eb6d676c	-1.2483730967783212e-05
211	0xbf03abcffbedf8a2	-3.751972643949274e-05
212	0xbef69139e1b138a0	-2.1521844342502748e-05
213	0x3ef67f929e00fd92	2.1456080389945622e-05
214	0x3f00d7bab1cb77dc	3.2124886478731885e-05
215	0x3efe97ea9cb30e42	2.917616238275038e-05
216	0x3ed35ed6aaea6869	4.618278281265811e-06
217	0xbed67e46fa7c8433	-5.362813602778149e-06
218	0x3eea479be7aece5a	1.2531148277129096e-05
219	0xbf0219cc420c119d	-3.4524484595652184e-05
220	0x3eeed2ca68e52e12	1.4697742952172184e-05
221	0xbeddaf9890765dbb	-7.0776752702154186e-06
222	0x3f070f3c869fd617	4.398253879848659e-05
223	0x3f165fbf59bbe939	8.535008822355563e-05
224	0x3ee914054546608b	1.1958220206762196e-05
225	0xbee695b24d1815c6	-1.0769248919305091e-05
226	0x3ea66f5c2b918bdb	6.686151074016427e-07
227	0xbef17e34c16c195a	-1.6682617650886973e-05
228	0x3ecffb6f1547e7d2	3.8125710182220093e-06
229	0xbef356a68d603486	-1.8442610631598282e-05
230	0x3ee61730b75289f5	1.0533612775203027e-05
231	0x3ee9a29a74baa70f	1.2223801284367017e-05
232	0x3f0101e3da5223ac	3.243900872813092e-05
233	0x3efa63a18dff6f3a	2.5166686896101904e-05
234	0x3ee6b65913c36202	1.0830067019560779e-05
235	0x3f0a0d1b28db0ead	4.9688712449061846e-05
236	0xbefd50cd1a11d809	-2.7957563024171048e-05
237	0x3eeb774e2a330f87	1.3096826768317433e-05
238	0x3f0d11bb8375afc0	5.544522758324467e-05
239	0x3eb8787f53c95213	1.4585669553440845e-06
240	0xbed20c722c9f5bd7	-4.303125658431314e-06
241	0x3eefd8c0aa7bdc4f	1.5185685085834575e-05
242	0x3ee002ea36fb948d	7.634823958333512e-06
243	0xbf048652b178292c	-3.914775714626765e-05
244	0x3e9a95839c9a5483	3.961330575589024e-07
245	0xbede629fe89ec45a	-7.244408729721152e-06
246	0x3ea82eef791c4e2c	7.207197418611738e-07
247	0x3ec046f982e8f344	1.9403987814567496e-06
248	0x3efec2a055e07f6e	2.9335268998064772e-05
249	0x3ef7ea471657555e	2.2807261663112192e-05
250	0x3f11ab5b46bdf9b0	6.740326506180535e-05
251	0x3ee96864aa8cadfc	1.2115376493668742e-05
252	0xbef1dbb7e00f817d	-1.7030977691125007e-05
253	0x3f0435cfeb902a70	3.8547904701220835e-05
254	0x3ede523843dacbed	7.229130515251458e-06
255	0x3ef474ff6b336b33	1.950933683479289e-05

medians f4 [96]
0	0x3a0c1e9b	0.0005345137
1	0x3a07d929	0.00051822007
2	0x3a04dcc0	0.00050682947
3	0x3a08a00c	0.0005211837
4	0x3a0c86eb	0.00053606805
5	0x3a11b5f8	0.00055584265
6	0x3a1701c4	0.0005760456
7	0x3a1d46ce	0.00059996254
8	0x3a222d0e	0.0006186523
9	0x3a27a05c	0.000639444
10	0x3a308b42	0.0006734618
11	0x3a3983ea	0.00070768467
12	0x3a417d3e	0.0007381028
13	0x3a4f63f8	0.000791132
14	0x3a5e262e	0.0008474317
15	0x3a625b91	0.000863486
16	0x3a6fc072	0.0009145803
17	0x3a798b96	0.0009519396
18	0x3a8072d0	0.0009799842
19	0x3a87baca	0.001035535
20	0x3a9617b2	0.0011451154
21	0x3a9e588d	0.0012080834
22	0x3aa4a9e4	0.0012562838
23	0x3aadd408	0.0013262043
24	0x3aaf6ee6	0.0013384491
25	0x3ab93a3c	0.0014131735
26	0x3abcb7ee	0.0014398077
27	0x3acfd0f7	0.0015855123
28	0x3ad44642	0.0016195255
29	0x3ade15cc	0.0016943752
30	0x3af06c53	0.001834283
31	0x3af3a982	0.0018589946
32	0x3af228c2	0.0018475282
33	0x3b08f3e6	0.0020897328
34	0x3b16f551	0.0023034404
35	0x3b1d0ca4	0.0023963833
36	0x3b16a516	0.0022986582
37	0x3b1e1b6a	0.0024125227
38	0x3b352eca	0.0027646297
39	0x3b46302e	0.003024112
40	0x3b53d565	0.0032323238
41	0x3b5759bf	0.003285989
42	0x3b5ed58e	0.00340018
43	0x3b4b181a	0.0030989707
44	0x3b4bfcbc	0.0031125983
45	0x3b3cea97	0.002882635
46	0x3b4ef346	0.0031578108
47	0x3b6750f4	0.0035296055
48	0x3b88d058	0.004175227
49	0x3b9c0050	0.0047607794
50	0x3bac3e0c	0.00525642
51	0x3ba70f92	0.0050982917
52	0x3bbce33b	0.0057643927
53	0x3bc29aec	0.0059388783
54	0x3bdacf57	0.006677549
55	0x3bec6695	0.007214377
56	0x3be2f762	0.006926463
57	0x3bf606cb	0.007508134
58	0x3bfa7e32	0.007644438
59	0x3be0b70e	0.0068577593
60	0x3bed78be	0.0072470596
61	0x3c03d336	0.008045962
62	0x3c0d6926	0.008631026
63	0x3c2b7fa0	0.01046744
64	0x3c2588b6	0.010103395
65	0x3c47c9f6	0.012194147
66	0x3c1fd078	0.009754293
67	0x3c22a2da	0.009926522
68	0x3c3076b4	0.0107704885
69	0x3c44ad34	0.0120041855
70	0x3c48f30d	0.012264979
71	0x3c564711	0.013078467
72	0x3c535e7b	0.012900944
73	0x3c85b0b6	0.016319614
74	0x3c6c5e06	0.014426714
75	0x3cb544d8	0.022127554
76	0x3cb011aa	0.021492798
77	0x3ca18bde	0.019720014
78	0x3cbe74c4	0.023249038
79	0x3cb396c6	0.02192248
80	0x3c85a480	0.016313791
81	0x3ccf6f61	0.025321664
82	0x3ca1c7ce	0.019748595
83	0x3ca3cb7a	0.019994486
84	0x3c842d20	0.016134799
85	0x3ccbe2a2	0.02488834
86	0x3cf9f3ff	0.030511854
87	0x3ced3764	0.028957076
88	0x3d2c29b2	0.04203195
89	0x3d3be0b9	0.04586861
90	0x3d37cb8b	0.044871848
91	0x3d58d14c	0.052933976
92	0x3d51ae4c	0.051191613
93	0x3d55bff8	0.05218503
94	0x3d43717f	0.04771566
95	0x3db06b7e	0.086142525

threshold f8 []
0	0x3eeaf86b25550aa1	1.28604816988e-05
