ParamsAlgoPT/ETH/params3.npz (npz, 1184 bytes, 3 tensors)

threshold f8 []
0	0x3ee4a56489289c8b	9.84481110773e-06

ptmeans f8 [6, 2]
0	0xbf1772cf0a1ea716	-8.944882077224452e-05
1	0x3f0be3c7550d711f	5.31954962130507e-05
2	0xbf1280c8d537c465	-7.058358942636926e-05
3	0x3f03ddef22d85cb1	3.789316211227337e-05
4	0xbf0d9e69793a3c7a	-5.649337177004387e-05
5	0x3efe04fad74dc584	2.8628780870792247e-05
6	0xbf0214f34273ed63	-3.448836678817781e-05
7	0x3f16c975f50c33a3	8.692533925742803e-05
8	0xbefd62b283e7ae1f	-2.8024231363872367e-05
9	0x3f108a609fd5b555	6.309714077242419e-05
10	0xbf030d3f7d180889	-3.6338329334043946e-05
11	0x3f18fa6b9637fe25	9.528428704896253e-05

params f8 [6, 3]
0	0x0000000000000000	0.0
1	0x3f7b8df34d29ce83	0.006727171322029715
2	0x3ff022e320b24f81	1.008517387123874
3	0x0000000000000000	0.0
4	0x3f8b8df34d29ce83	0.01345434264405943
5	0x3ff028a87fe65492	1.009926318748772
6	0x0000000000000000	0.0
7	0x3fa37be56ab1e263	0.03805462768008707
8	0x3ff064b5b6279162	1.0245873561298926
9	0x3ff0000000000000	1.0
10	0x3f7b8df34d29ce83	0.006727171322029715
11	0x3fefa16231edd6a9	0.9884501433541192
12	0x3ff0000000000000	1.0
13	0x3f872ba43fff3716	0.011313708498984758
14	0x3fef12aa12c8b851	0.9710283629299373
15	0x3ff0000000000000	1.0
16	0x3f772ba43fff3716	0.005656854249492379
17	0x3fefb4fd57c6dc9d	0.9908434595480632
