ParamsAlgoPT/ETH/params0.npz (npz, 1144 bytes, 2 tensors)

ptmeans f8 [5, 2]
0	0xbf1493ce5e4cb484	-7.849642822739712e-05
1	0x3f04928dd7e44911	3.923888560754448e-05
2	0xbf0dc93fc1b7b02c	-5.681253261599658e-05
3	0x3f068138c4649244	4.2924446960666596e-05
4	0xbf14ab8b12bc95ae	-7.885013900173793e-05
5	0x3f06263665ad9122	4.224637515085258e-05
6	0xbf02cdbae9fb053c	-3.5865084325968e-05
7	0x3f18dd6b4ef3c27d	9.485213717020688e-05
8	0xbeed49c43dfeef30	-1.3965678533504536e-05
9	0x3f059c1cf7165fe7	4.121745486002065e-05

params f8 [5, 3]
0	0x0000000000000000	0.0
1	0x3f872ba43fff3716	0.011313708498984758
2	0x3ff01ae15b478704	1.0065625730134693
3	0x0000000000000000	0.0
4	0x3f8b8df34d29ce83	0.01345434264405943
5	0x3ff0707228d64a03	1.0274526210019992
6	0x0000000000000000	0.0
7	0x3f80624dd2f1a9fc	0.008
8	0x3ff01b2d0aa08ef7	1.0066347518085743
9	0x3ff0000000000000	1.0
10	0x3f772ba43fff3716	0.005656854249492379
11	0x3fefb9c9fab95505	0.9914293190910547
12	0x3ff0000000000000	1.0
13	0x3fa72ba43fff3716	0.045254833995939034
14	0x3fecb0da181f34ca	0.8965883704310269
