ParamsAlgoAP/XMR/params25.npz (npz, 15076 bytes, 3 tensors)

means f8 [96, 16]
000000 03 12 e5 04 15 2b 11 3f 75 3c 5e 30 5f a0 07 3f
       6.549182692078968e-05 4.5063881812906175e-05
000010 11 ca ba 4f 3e ac 15 3f 3e c8 70 80 ef 87 cd 3e
       8.267526930686604e-05 3.520369321851685e-06
000020 51 75 14 be 5d 1c 05 bf d2 99 ce 7f 1a a0 20 bf
       -4.0265665811593306e-05 -0.00012684176900030916
000030 5a e1 3e 3c f8 44 f5 3e 04 17 15 10 8a 1e f5 3e
       2.0284092684370654e-05 2.0140928431964223e-05
000040 c2 9f c4 1f 36 ba eb be 9a ae c4 a3 e5 eb 28 3f
       -1.3221449073855146e-05 0.00019013574809300244
000050 eb b6 b0 98 a9 ba 2e bf 73 e2 57 d7 ce 8e fe be
       -0.00023444481152650547 -2.9142230649955484e-05
000060 82 89 db 85 3a 13 f1 be 6e 97 76 8c 6a dd 48 3f
       -1.6284095514582018e-05 0.0007588167435883372
000070 67 48 9d d0 76 61 53 3f 89 c2 e5 92 8f 46 11 3f
       0.0011829052259213714 6.590129189532936e-05
000080 8b 77 e1 66 7f 25 e3 be 83 26 cc ab e3 0f 03 3f
       -9.129750847044145e-06 3.635800883301529e-05
000090 3c 94 92 8e 82 06 de be c5 da d7 f9 10 ad e2 3e
       -7.158620271817631e-06 8.905429974765352e-06
0000a0 37 d0 fc e9 15 a2 eb be 29 53 7a c7 a6 ad ed 3e
       -1.3176511231095904e-05 1.4151728677172498e-05
0000b0 f3 f2 f1 7d c4 52 06 3f 34 46 ac 78 3e 20 c1 3e
       4.257833619989394e-05 2.041572718333002e-06
0000c0 64 1c 7c a9 be 72 e4 3e 9f f0 a9 65 ac d9 01 bf
       9.750471960069496e-06 -3.4046720164022626e-05
0000d0 e1 ae d6 15 15 af f4 be bf f0 c9 47 45 84 d2 3e
       -1.9725718961956655e-05 4.414721044395687e-06
0000e0 33 a1 9e cf b2 a0 15 3f 4f c9 53 01 06 ce 11 3f
       8.25032365400255e-05 6.791984226931401e-05
0000f0 33 4f dc 56 c3 0a f4 3e bb 99 61 f3 7f 25 04 3f
       1.911358179203168e-05 3.8426367994049086e-05
000100 76 63 2f ea 72 18 f9 3e ac dc 1c d3 64 e5 e2 be
       2.3932937107537748e-05 -9.010348182776573e-06
000110 3f 1c 24 b2 72 1d 10 3f db 1b 1a bd a5 eb ee 3e
       6.147396610255237e-05 1.4744042263771108e-05
000120 fb 68 b6 2f 41 f3 fb be f7 67 2d 97 e7 f7 f7 be
       -2.66554006721287e-05 -2.2858026066920026e-05
000130 7e 59 0b 18 e2 bd ec be 99 9e b3 5b a8 08 f9 3e
       -1.3705125412694039e-05 2.3874110166936973e-05
000140 bf 29 ee d1 51 43 f3 3e 3c b2 92 97 fe cf cf 3e
       1.8370597100006563e-05 3.7923429628465907e-06
000150 e7 f0 7f 05 12 2f d8 3e 2d bd b9 7d da 4c 05 3f
       5.765883621219382e-06 4.0626924342807666e-05
000160 32 90 ed 94 c7 e1 fa be 87 42 5e 4b 8c f0 e8 3e
       -2.5636626840422508e-05 1.189214740884957e-05
000170 86 55 be f5 fc 73 10 3f 06 17 fc 3a 45 a2 f1 3e
       6.276351399344378e-05 1.681696784230134e-05
000180 f9 2b 88 67 88 1e 0f 3f 34 1b 57 10 fd 7e e6 3e
       5.935529492625403e-05 1.0726952050966328e-05
000190 7a 5e 2e c3 45 76 01 3f c3 fc 19 3f b6 55 e5 3e
       3.3306125622076376e-05 1.0173231177688907e-05
0001a0 fa 62 6d 36 e4 8f eb 3e dc 41 7f ca aa fe f2 be
       1.31426219930771e-05 -1.8114846767338047e-05
0001b0 61 31 93 43 7c 61 bb be 6e dc 6a aa d5 58 e0 be
       -1.6320229987875202e-06 -7.794861926908709e-06
0001c0 2f 43 d0 d5 cb 45 18 3f 26 1f 88 3c 81 4d 0a 3f
       9.259277926810799e-05 5.016852043487748e-05
0001d0 96 8a 10 44 92 50 f7 be 41 36 0f 71 c8 6c 02 3f
       -2.2234660949869445e-05 3.5142771714552236e-05
0001e0 b1 e3 5e 05 50 d1 e1 3e 86 bf 08 75 3f ee 1a bf
       8.496106754894919e-06 -0.00010273229896351323
0001f0 5e 28 8e b5 e6 fb be be 5d 69 25 9f a0 59 d5 3e
       -1.8467896636142578e-06 5.090262208485384e-06
000200 c0 f2 8e ef 23 dc 07 3f de bf 96 3a 85 39 fc 3e
       4.5509192154712715e-05 2.6917161141504105e-05
000210 5a fb 2e 06 cf e7 e2 be 95 64 d5 38 51 e5 f8 be
       -9.014846176101026e-06 -2.3742457007845474e-05
000220 6c 40 82 c2 ea 12 ca be 6f 69 7b 71 9e 20 01 3f
       -3.1082504570803984e-06 3.266795664354476e-05
000230 6d 0e 87 6e 6a 6c c5 be 72 42 64 d5 2b a7 ee 3e
       -2.553880097817994e-06 1.4616495417147885e-05
000240 d9 91 78 f6 5a 3a f7 3e b3 0e 28 36 35 6c 0f 3f
       2.215189979727799e-05 5.9934018981547785e-05
000250 8d 18 ea 42 d8 b5 01 3f 28 f9 39 f1 cd b4 c0 3e
       3.377977588052512e-05 1.9915422713726945e-06
000260 83 e2 c0 e2 38 08 ec be 78 6d 64 41 92 e4 18 3f
       -1.3366755489228589e-05 9.495871231417717e-05
000270 43 94 2a 16 ce f5 e2 3e 3e b2 bc 49 41 c4 f3 3e
       9.040916386491199e-06 1.8850918976175692e-05
000280 ec 3b 07 e8 99 6c f3 3e eb fa c0 40 ff 65 d1 3e
       1.852438299626204e-05 4.148108029565786e-06
000290 c7 14 b6 14 4f 22 d0 be 35 9d 45 09 69 9b e7 be
       -3.846649927812316e-06 -1.1256728875876264e-05
0002a0 b8 8c e9 0c 33 5e e4 be 03 01 b5 8a 3c 3c f7 3e
       -9.71220324891827e-06 2.215890769474792e-05
0002b0 77 91 a1 4e f8 d0 d6 3e bc 37 ab 80 07 35 f4 3e
       5.439827171914059e-06 1.9271035891325664e-05
0002c0 6d 26 56 6f 68 8f 07 3f 59 44 86 7e 28 09 c0 be
       4.4937491035912425e-05 -1.911613242984916e-06
0002d0 ca a2 a3 09 1b 76 12 bf ac 9b 40 17 26 54 00 3f
       -7.042446160066964e-05 3.114453548418798e-05
0002e0 2c 56 a7 e5 4c bc 03 3f 07 8a 64 96 2c 52 f6 3e
       3.764257117537211e-05 2.1286957598518434e-05
0002f0 8f d4 54 62 f4 f1 01 bf 96 b5 33 ec 2c e3 15 3f
       -3.4227629195284906e-05 8.349382101232312e-05
000300 9d 7d fd a7 64 a9 0b 3f e7 02 98 c5 2d 88 db be
       5.2760490688137674e-05 -6.564128022912915e-06
000310 7f 2f 0d df 7c 08 d0 3e 99 2c c9 73 99 20 f1 be
       3.822602125346549e-06 -1.6333905693149788e-05
000320 1a 79 28 46 02 0a f8 3e 41 e6 0b 09 28 d4 f0 be
       2.292546958859122e-05 -1.6049133196616034e-05
000330 23 2a a8 66 50 4f f3 3e ef 00 59 40 ba 49 c7 be
       1.8415279933884276e-05 -2.7761457228881916e-06
000340 20 13 60 41 aa 74 06 bf cb 81 3c 17 71 e0 02 3f
       -4.2830892354606e-05 3.6004496818845324e-05
000350 37 78 a0 64 6d 44 de 3e c6 c3 ac f2 6f af fd 3e
       7.216285277804024e-06 2.8310110035071276e-05
000360 ff cb 21 45 b0 17 f5 3e 9f 3e 7a 6b d5 66 0d 3f
       2.011540738817638e-05 5.6079280907115165e-05
000370 6b 00 e9 c6 9f 26 f0 3e db 58 07 bd 19 b1 10 3f
       1.5402675155096553e-05 6.367415995298406e-05
000380 d7 37 fd 2c ff 81 be be 5e 48 d2 44 4d 24 10 3f
       -1.8184065772755293e-06 6.157609569104733e-05
000390 d5 b2 c8 8a 29 db e7 be ef d9 f3 02 2e 72 d9 3e
       -1.1375476185093554e-05 6.066802640028529e-06
0003a0 31 be 15 59 46 45 03 3f 63 09 50 3d 32 a1 c9 3e
       3.6755761480541576e-05 3.055295091148787e-06
0003b0 04 f4 16 ba 7b 1e ee 3e 2e 8b 14 89 2a 80 ec 3e
       1.4361894332343493e-05 1.3590168495063856e-05
0003c0 33 61 36 81 d1 55 fe 3e cc a8 82 52 c9 fe d8 3e
       2.892992786271524e-05 5.959334238673195e-06
0003d0 44 9f a7 b5 41 ec d2 3e 4b b7 b5 00 5c 75 e4 3e
       4.51156560152944e-06 9.755342054797554e-06
0003e0 52 de d5 bb 21 f0 10 3f 4a 0b d4 0b 8c 61 01 bf
       6.461339849816422e-05 -3.3151708956699765e-05
0003f0 54 90 3f 70 8a ca 04 3f d5 99 ae 69 6e 6c f5 be
       3.965601902658546e-05 -2.0431098714768427e-05
000400 d8 d6 2b c7 a7 59 00 3f d2 95 ec 1a 29 47 f1 3e
       3.118556278096173e-05 1.6477557149082774e-05
000410 e8 22 27 39 d1 de fe 3e 09 97 57 cb 8d 5c e0 be
       2.9440288537493665e-05 -7.801789574334304e-06
000420 4e dd 4e fb 68 bc d8 be db aa 49 d9 12 c5 f1 be
       -5.897516463563539e-06 -1.69466198535567e-05
000430 a0 90 93 2b fd a0 af be 78 11 8f 36 7f 03 f4 3e
       -9.426135739979201e-07 1.9086513393566537e-05
000440 2f cc 6a 19 00 84 d0 3e f3 74 70 af 11 58 0b 3f
       3.937632206674068e-06 5.215457888872203e-05
000450 2f 95 ee b7 9b b9 d1 3e 31 02 4b 45 85 e5 07 3f
       4.225977021575941e-06 4.55790801985361e-05
000460 b3 1b 2e a1 0d 51 00 3f ed 6b 99 1c f0 df 0e bf
       3.1121471827203795e-05 -5.8888926628162956e-05
000470 2a 0b 1b f4 a0 5e 0d 3f d0 65 72 19 b8 53 fc 3e
       5.6018149292144597e-05 2.7014758953036223e-05
000480 e5 94 74 26 55 12 b2 be 56 fb 17 5b d9 61 03 3f
       -1.0771520012134664e-06 3.6968656228700505e-05
000490 77 00 99 66 16 c6 dd 3e 38 51 05 04 7b 26 e3 3e
       7.098622157253421e-06 9.131581578593868e-06
0004a0 43 1d c2 0b 6d cd e8 3e b0 a3 d6 e4 a6 65 e6 be
       1.1826727466037113e-05 -1.0679758953484542e-05
0004b0 52 cc 4f 9d c7 7d e9 3e 1c ce 20 0c 5f ee c2 3e
       1.215521198536497e-05 2.2567674884622944e-06
0004c0 50 07 bb 7f 13 2f 16 3f 40 17 93 23 27 65 01 3f
       8.462482940798971e-05 3.3178574491850386e-05
0004d0 fb cb 9e e6 e5 f8 0b 3f e5 8b 70 b9 4b ef 9d 3e
       5.335284806964182e-05 4.460625233090406e-07
0004e0 79 b8 79 68 36 37 09 3f c6 55 ef 53 74 ee c4 3e
       4.80950812374739e-05 2.495224776559031e-06
0004f0 15 76 02 76 03 68 05 bf f8 19 a4 b9 24 68 00 bf
       -4.082928239877382e-05 -3.129350734991718e-05
000500 00 29 98 9d 18 ea fa be 45 62 0d 90 5d d0 00 3f
       -2.566760836057117e-05 3.2070021922240895e-05
000510 0a c6 1d 19 0e 5a fd 3e 05 a9 2b 88 9f cc da be
       2.7992036457152556e-05 -6.389453235592381e-06
000520 7d 31 6f f6 15 2c e8 3e 87 76 23 7a 8b 69 de 3e
       1.1526207982636518e-05 7.250853658128553e-06
000530 af 53 0b 55 72 88 e6 be cd 18 c0 aa 69 43 f6 3e
       -1.0744569097035016e-05 2.123196706806871e-05
000540 a7 03 4b 60 f7 d2 10 3f a9 84 fb f9 24 3d 17 3f
       6.417879928745253e-05 8.864916025743082e-05
000550 b5 49 3b b5 7b 70 05 3f 3d 6c 72 b7 d9 72 fb be
       4.08923866907109e-05 -2.6177057830350582e-05
000560 c9 d4 0b e3 53 15 f4 3e 0f 97 86 85 a5 75 0b bf
       1.915293813943979e-05 -5.2374948327922365e-05
000570 03 a9 4a 95 1d 53 b5 3e f0 be 7f 7f a4 52 04 3f
       1.2710493894432823e-06 3.87627077883516e-05
000580 29 25 9a ef b8 5d d4 3e 7b d4 8a 3f a0 d7 fa 3e
       4.8556573745220464e-06 2.559880155913019e-05
000590 ab 24 97 e9 14 d7 f1 be 37 41 5a 76 77 37 f0 3e
       -1.7013705109457263e-05 1.5465418434391586e-05
0005a0 78 84 38 4c 83 71 02 bf df 78 5d 97 b5 8e e2 be
       -3.5178012265165684e-05 -8.84888570923083e-06
0005b0 b5 25 19 22 08 98 d1 be f1 9d 12 b8 c5 e2 e9 3e
       -4.1947064644635875e-06 1.2343325354115748e-05
0005c0 e2 3c 2e ff df 1a 09 3f 4f 49 e6 9f 1a d4 f8 3e
       4.788395008070171e-05 2.3678332576057306e-05
0005d0 a3 bc 09 5d 89 32 f7 be 88 14 5b 19 b3 ff ea be
       -2.2122772693253104e-05 -1.2874043743402752e-05
0005e0 62 8a 47 8e 46 71 ef 3e 87 a8 c9 9f 36 34 fb 3e
       1.4992944167018303e-05 2.594371652479184e-05
0005f0 82 8c 13 08 b5 cf 24 3f 7b 13 e9 72 49 99 fc 3e
       0.00015877804620520816 2.7273919096754383e-05
000600 f5 bd 99 6e aa 71 d7 be 6b 0c 81 d1 1f 28 01 3f
       -5.589486798393107e-06 3.2723876018291746e-05
000610 06 6c 54 ff e8 ce 03 3f 95 f3 1a 7c 92 10 77 be
       3.7781224742704274e-05 -8.592283420433927e-08
000620 50 c8 c7 3d 37 e4 a4 be fd 6b 28 ab 2c aa f2 be
       -6.226142619787827e-07 -1.7800087059521148e-05
000630 cb da ef 41 b6 5b f3 3e 46 bb 33 fc 87 0d ff be
       1.8461465625531006e-05 -2.9614311427057846e-05
000640 99 3b fe 44 af 58 f6 3e c3 c6 17 bc dc f0 0b 3f
       2.1311211014170618e-05 5.329297665558404e-05
000650 aa 86 64 e9 59 cd 10 bf 9d 00 c1 d5 cc 6b bf 3e
       -6.40951278439115e-05 1.872843163233695e-06
000660 23 16 73 7a 09 73 10 3f e8 c2 56 00 cd 5c e2 be
       6.274934149804643e-05 -8.75592378232885e-06
000670 6f be 94 0a 46 5a 16 3f ec 71 71 30 c0 8c 05 3f
       8.526852129330809e-05 4.110299601542744e-05
000680 4a cc 40 e8 2b ab de 3e 9a a3 be 34 cb 1a c1 3e
       7.3119732669101325e-06 2.039034745455722e-06
000690 cf 0e 44 83 de fa f2 3e 73 9b dd dc 73 7e e4 be
       1.8100698256708424e-05 -9.77227946537065e-06
0006a0 1b f5 55 e3 03 8a e2 3e 19 b9 dc d6 e7 07 f1 3e
       8.840142167394199e-06 1.6241914116915232e-05
0006b0 5b 46 c2 35 3e 3e fa 3e 2d ca 26 06 c8 ef 04 bf
       2.5027405499650174e-05 -3.993348288435328e-05
0006c0 0c ea ca b9 7c c0 c5 be ee ea 05 af 5f 41 ec be
       -2.5930289225515947e-06 -1.3473208554817006e-05
0006d0 03 d7 55 9b d2 71 03 3f ac df 96 ae f7 8b 04 3f
       3.708766909486622e-05 3.918981185385638e-05
0006e0 fd f8 f5 78 4d 56 d8 3e a6 b7 3d c1 c4 57 e8 3e
       5.802421483179366e-06 1.1607573504792399e-05
0006f0 a0 26 01 a8 62 ce 20 3f 9f 8d ed db d8 12 06 3f
       0.0001282210760130036 4.210209180291056e-05
000700 47 d1 69 12 ea 0b eb 3e a0 e8 87 35 98 25 e5 3e
       1.2896795465546506e-05 1.0083605659784022e-05
000710 5c 87 a2 e3 34 5e 01 3f d6 f9 e2 1f 3c 2d e4 3e
       3.3126820612196516e-05 9.620999659507126e-06
000720 b4 ac c3 0a 9c 43 00 bf 47 7b 50 30 f1 3d fe 3e
       -3.102130844631051e-05 2.8840981958318313e-05
000730 a5 20 fc 2b d2 20 e5 3e 41 0d 54 3d a2 85 c6 be
       1.0074714168265277e-05 -2.6848324333764654e-06
000740 94 d0 8e e1 98 35 e8 3e d0 85 38 a4 ed 5c 12 3f
       1.1543924346081842e-05 7.00492901662055e-05
000750 e3 55 32 b6 fd ea 12 bf c6 de 1b 89 47 73 f7 be
       -7.216619046553729e-05 -2.2363958641384898e-05
000760 ce 84 d4 17 b7 65 0a 3f 87 d1 13 91 20 72 11 3f
       5.034890180356245e-05 6.655048152365814e-05
000770 10 a7 5a d7 6a b4 11 3f e3 26 85 96 0f 3d e9 be
       6.75382815084303e-05 -1.2034663726584671e-05
000780 2f 51 1e 9d 3d 4e 02 3f 3e 01 8b 72 8e c1 f8 3e
       3.491521387313995e-05 2.3609237504330605e-05
000790 66 b5 1a 5c 8e 50 d9 be 0a 59 50 54 d5 03 d3 3e
       -6.035488185380166e-06 4.53352305831144e-06
0007a0 07 df 09 6e d6 23 56 be bd 7c 97 5e 22 cc f5 be
       -2.06194731310649e-08 -2.0787620007453546e-05
0007b0 99 c4 68 08 e3 23 df 3e 79 10 99 be 4a 66 ea 3e
       7.424398182951817e-06 1.2588299756484605e-05
0007c0 bd 81 66 af 20 d4 e1 3e bc 32 f4 b5 13 c8 08 bf
       8.501350276913432e-06 -4.726705696542685e-05
0007d0 90 8c a0 57 9b 54 ff be 0c 47 30 05 2a 47 17 3f
       -2.9879088721551444e-05 8.879846545564398e-05
0007e0 32 52 e0 e8 22 10 15 3f 23 45 0e 97 2b 38 f3 3e
       8.034909316762746e-05 1.8329062587312276e-05
0007f0 44 fa 74 3d 7c d6 e8 3e 69 ee 55 20 45 67 f5 3e
       1.1843601824265981e-05 2.0411871465493567e-05

medians f4 [96]
000000 85 32 56 3a 54 57 50 3a c2 bb 4d 3a d1 d6 4a 3a
       0.000817098 0.0007947583 0.00078481075 0.00077376986
000010 ce ef 4c 3a 15 df 51 3a 29 a9 56 3a f2 8d 5d 3a
       0.0007817716 0.0008005959 0.0008188659 0.00084516325
000020 00 48 62 3a 83 cc 6a 3a a4 8f 72 3a 59 0e 7c 3a
       0.00086319447 0.0008956866 0.00092529715 0.0009615175
000030 1b 63 84 3a e5 36 89 3a 9f ed 8e 3a 80 86 95 3a
       0.0010100337 0.001046863 0.0010904557 0.0011407882
000040 7f d2 99 3a 47 82 a1 3a df e9 a6 3a 65 63 ad 3a
       0.0011735706 0.0012322151 0.0012734494 0.0013228474
000050 19 43 bc 3a f7 38 c7 3a 2e 45 cf 3a 99 e4 d6 3a
       0.0014363258 0.0015199472 0.0015813464 0.0016395032
000060 c1 16 de 3a 0f b7 e9 3a 33 d5 f0 3a 6c 0b 02 3b
       0.0016944037 0.0017831045 0.0018374085 0.0019843234
000070 d1 48 06 3b b5 d9 0a 3b 9d 8a 18 3b 45 c1 1d 3b
       0.002049018 0.0021186892 0.002327598 0.0024071496
000080 3b f5 18 3b 81 5d 24 3b 9b fe 2f 3b 51 f0 31 3b
       0.0023339528 0.0025080147 0.0026854638 0.0027151296
000090 75 7b 3e 3b 1d c4 45 3b 3a cb 5c 3b 80 14 6c 3b
       0.0029065285 0.0030176707 0.0033690468 0.003602296
0000a0 ac 65 7d 3b e2 71 82 3b 48 c0 81 3b 58 44 86 3b
       0.0038665337 0.003980861 0.0039596893 0.0040975027
0000b0 5d 6b 82 3b 5f 22 7d 3b e4 8e 87 3b c2 e6 8b 3b
       0.003980084 0.0038625223 0.004136907 0.004269452
0000c0 70 81 9f 3b 5b 30 b5 3b 0c ff c6 3b 81 24 bb 3b
       0.004867725 0.005529446 0.0060728844 0.0057111387
0000d0 6a d0 c2 3b 9f ab d7 3b 4f 55 e4 3b ae 62 f0 3b
       0.005945255 0.006581738 0.0069681774 0.0073359823
0000e0 49 73 00 3c 14 66 05 3c 02 6d 06 3c 0a 4b 08 3c
       0.007839986 0.008142013 0.0082047 0.008318672
0000f0 2d 84 1b 3c 95 4c 0c 3c 9b 25 29 3c b7 c4 2b 3c
       0.009491962 0.00856318 0.010323907 0.010483912
000100 dc ce 27 3c ca bd 51 3c b4 c8 31 3c e7 c7 31 3c
       0.01024219 0.012801597 0.010851074 0.010850883
000110 ed 5a 26 3c 79 e3 59 3c ad 9f 35 3c dd 64 4f 3c
       0.010153514 0.013298863 0.011085433 0.012658325
000120 9c d8 3f 3c a9 9d 85 3c 46 a8 95 3c d5 5f ad 3c
       0.011709359 0.01631053 0.018268716 0.02116386
000130 4a 90 cb 3c 97 09 b3 3c f8 3d c0 3c 5c 07 cb 3c
       0.024849076 0.021855159 0.023467049 0.024783783
000140 14 64 d6 3c ca 98 e0 3c 7e 99 b3 3c 43 10 ab 3c
       0.026170768 0.027416606 0.021923777 0.020881778
000150 9d 21 da 3c 5b 7d c1 3c 37 4a 0e 3d 7f bb 0a 3d
       0.026627356 0.023619344 0.034738746 0.033870216
000160 3c ff 11 3d e2 87 0f 3d 5b 7f 1b 3d 30 fc 29 3d
       0.0356438 0.035041697 0.037963253 0.04150027
000170 ef f4 54 3d da ed 73 3d 7c e1 66 3d ce 45 86 3d
       0.0519914 0.059553005 0.056367382 0.06556283

threshold f8 []
000000 f7 fc 9e 27 ae 77 06 3f
       4.28533575838e-05
