ParamsAlgoAP/XMR/params17.npz (npz, 15076 bytes, 3 tensors)

means f8 [96, 16]
000000 0e b9 73 59 aa f1 10 3f bb 4f b7 2f 3e aa 09 3f
       6.463625173911224e-05 4.895212438396588e-05
000010 90 3b 09 10 1e 10 1d 3f 0d b3 cf 5e 9f e1 cd 3e
       0.00011086638915823303 3.56213307960705e-06
000020 11 14 21 16 50 0d 07 bf 2e c3 b5 6e 90 47 20 bf
       -4.396820692468423e-05 -0.00012420309154095296
000030 e5 f5 58 3e 31 de e3 3e ee 3e 39 5b 16 1e f1 3e
       9.47377152293433e-06 1.6324547415457373e-05
000040 08 58 2f b5 2c 97 fb be 9a ae c4 a3 e5 eb 28 3f
       -2.6312375961477812e-05 0.00019013574809300244
000050 ab da 17 31 04 22 2f bf 7a 38 ab f9 3b 17 fd be
       -0.00023752499741621266 -2.7743109607674257e-05
000060 e4 03 c5 f3 11 a6 02 bf 1c f6 50 01 b5 70 46 3f
       -3.556959424822601e-05 0.0006848224462669447
000070 a4 6a 82 d6 5d e7 52 3f 55 05 94 41 97 90 11 3f
       0.0011537948976526958 6.70044249950948e-05
000080 77 5c ac 32 c5 b6 db be e6 3b 07 04 b7 e2 02 3f
       -6.6075197462579055e-06 3.602143306446325e-05
000090 b4 89 13 85 dc 76 d7 be 48 08 73 8c f0 ff d6 3e
       -5.594325629606373e-06 5.483571107580262e-06
0000a0 14 51 d5 bc 5b 6b f1 be ce e7 3b 24 d6 30 ea 3e
       -1.6612404399056027e-05 1.2488731165206156e-05
0000b0 eb 50 ab 58 46 07 04 3f 4a bd a5 75 7c 15 a1 3e
       3.820117406908178e-05 5.091408000044943e-07
0000c0 d1 4e 25 2c 24 57 c5 3e 6a 2e 1f 15 b5 70 f7 be
       2.5439734098550125e-06 -2.2354376888063255e-05
0000d0 b6 19 5f f7 38 96 ff be 15 a0 7b 7c 68 a3 d7 3e
       -3.0123526322056822e-05 5.635813017802767e-06
0000e0 a2 5f c1 a5 99 07 13 3f 6f c9 1e b2 09 ef 15 3f
       7.259249963575837e-05 8.367058447226126e-05
0000f0 d8 20 74 ba c0 b4 f3 3e 17 e9 a9 be b8 6a 06 3f
       1.879316883182731e-05 4.2756808245907555e-05
000100 90 ea e7 fd 6d ed 00 3f a0 c4 2c a2 2c 58 ea be
       3.228656690975218e-05 -1.256200363783578e-05
000110 43 15 0a f2 14 98 0c 3f b4 bd 65 f7 01 c4 ea 3e
       5.453885956278406e-05 1.2762858869945884e-05
000120 b2 7a c2 5e b3 7a fc be 43 aa cc e1 fa 70 f3 be
       -2.715997645507768e-05 -1.8540695339167598e-05
000130 f7 c7 c8 2a ef c5 e2 be 06 82 12 ea 9e bf f6 3e
       -8.951750111927516e-06 2.16946779160194e-05
000140 72 d8 c3 91 76 21 f6 3e 92 d1 b8 1b f3 01 f0 be
       2.110549495256586e-05 -1.5266052044009245e-05
000150 92 23 d7 13 02 e0 d4 3e a5 d8 b4 25 b9 7d 06 3f
       4.9769953966515816e-06 4.2898380991849846e-05
000160 53 fd 05 b6 63 95 02 bf 48 c9 1e 74 25 24 cc be
       -3.5445313872446226e-05 -3.3546920414569485e-06
000170 15 04 a5 1b 7e 2a 0e 3f 61 ba 1b 33 d7 c2 f4 3e
       5.753705359490977e-05 1.9799324212971934e-05
000180 18 44 f7 0b db 53 0f 3f 4f 31 50 cf d5 4d e9 3e
       5.9752580905965576e-05 1.206590830273775e-05
000190 b3 ba c6 5f c6 2b fe 3e 6d a3 da ba aa 86 dd 3e
       2.8773303698488138e-05 7.0395571306968375e-06
0001a0 8a fa 97 20 67 b0 eb 3e 9f a2 0f 11 5c e4 f2 be
       1.3203179167751008e-05 -1.8016843629372667e-05
0001b0 fe 8f 1c f7 b2 3c e3 be ed 49 76 b9 ca a5 e5 be
       -9.172966858601858e-06 -1.0322391786475734e-05
0001c0 f5 f4 1d 4b 33 9c 17 3f db a6 44 30 50 47 12 3f
       9.006560392595452e-05 6.972720081379771e-05
0001d0 02 a0 c5 ea 68 88 ee be 40 ad 43 b6 3c 44 03 3f
       -1.4559197858601828e-05 3.674803045491471e-05
0001e0 7e 07 2d ab 49 7b ce 3e f4 7b da c7 07 e7 1d bf
       3.6336890273666396e-06 -0.00011406884183394456
0001f0 fb 53 81 13 4e 64 f3 3e 24 61 9e 2b 03 2d b8 be
       1.8493477199694308e-05 -1.4409917370225491e-06
000200 d0 f9 68 95 7a fd 05 3f 28 7a 0b ed e6 a3 fd 3e
       4.1942885833357404e-05 2.826713790937178e-05
000210 14 2b 38 1d 9b bf e5 be 08 b8 9a 90 3b f3 fd be
       -1.037047414966444e-05 -2.8562667501112776e-05
000220 2a 29 19 37 00 4a b2 3e 47 6a fc 67 96 83 01 3f
       1.0901132693358461e-06 3.340533021241716e-05
000230 3f e7 6d fd 6d e6 d9 be c2 35 20 b0 38 15 ec 3e
       -6.1750688108376975e-06 1.3390968437244632e-05
000240 23 6d 9d 34 b0 ec f5 3e c4 f1 44 b5 f6 07 0e 3f
       2.09088932828619e-05 5.7279793198780914e-05
000250 7e c1 34 e2 7c 8a 01 3f 79 eb 6d 48 03 66 9f be
       3.345674147181824e-05 -4.6787392487368453e-07
000260 34 21 f3 0e 49 fe ee be 89 77 1e f3 09 d7 1b 3f
       -1.4778758183801e-05 0.00010620115497636367
000270 fe ac fe ff 50 05 bb 3e 16 cd 9d 5e 2b 2c fa 3e
       1.6105632312062822e-06 2.4960076110369904e-05
000280 18 6a 5b 44 a0 2b f5 3e 35 22 2f d6 ef 9f d1 3e
       2.0189680319452214e-05 4.202068654764669e-06
000290 3c 0d 40 94 3d 2a 81 3e 44 5d 60 a1 2a d8 d7 be
       1.2788923176030395e-07 -5.684948083859682e-06
0002a0 40 87 87 67 e2 5f ed be 1a 80 f9 7a de 15 f0 3e
       -1.4006876185971109e-05 1.5340257674245716e-05
0002b0 1e 38 76 97 c9 dc a5 be 86 26 8d e2 62 58 f3 3e
       -6.515518142112487e-07 1.8449076523630144e-05
0002c0 3a c3 05 62 6c d0 09 3f c3 7e a0 a1 d7 b3 ea 3e
       4.923659094203119e-05 1.2732748519594402e-05
0002d0 b7 9e 54 e9 10 6c 15 bf 4e 0c 10 3b 04 16 fb 3e
       -8.171895236285918e-05 2.5831224494520925e-05
0002e0 3f 4f 19 9d 36 9f 04 3f 84 cc ed 83 ff 55 01 3f
       3.9333204438078775e-05 3.3065662583897155e-05
0002f0 02 be a9 f6 1c 4a 03 bf 9d fd cd 6b dc 2f 14 3f
       -3.679180993720542e-05 7.700713008595155e-05
000300 c3 f1 d3 cf 61 d8 09 3f 86 c2 2a 86 45 2b d1 be
       4.929588792809997e-05 -4.093415642600898e-06
000310 99 99 84 89 91 8c c6 3e d9 17 32 b8 b3 25 ef be
       2.688061680927722e-06 -1.4852177406387352e-05
000320 0e c4 52 e6 10 24 f6 3e 87 8f a6 d5 ef a8 f2 be
       2.111519133468983e-05 -1.7795476517825793e-05
000330 8a 45 8a 2b 75 4f f5 3e e2 d4 2b 6f f5 d4 5d 3e
       2.0323163627160942e-05 2.778309400159979e-08
000340 99 6a 20 5a 42 76 03 bf 62 d1 f6 0c b5 79 fa 3e
       -3.712072363289582e-05 2.5248926986258336e-05
000350 b2 01 3e 8e c2 76 e7 3e a3 a2 f8 5b 7e 6a 04 3f
       1.1188462344825137e-05 3.894041173807996e-05
000360 4d df e2 60 e9 2b f0 3e c5 cb 62 33 ae 8d fc 3e
       1.5422372648926046e-05 2.723068174565934e-05
000370 a7 2e 08 5e be e5 e6 3e c9 4a 14 1a b6 65 11 3f
       1.0918348324138431e-05 6.636547052022846e-05
000380 2d c8 2f 71 35 63 d2 3e 52 54 db 5f f7 dc 10 3f
       4.383929780070846e-06 6.43278108001949e-05
000390 ea 23 2b 1e ce fe e9 be 2b 7a 71 c9 ff ac eb 3e
       -1.2395540527692127e-05 1.3196839331705814e-05
0003a0 3b 15 98 5f 51 c8 03 3f e0 fb 60 e2 e7 3a cb 3e
       3.7732108420877233e-05 3.246080967605588e-06
0003b0 6d c7 3c 90 a7 11 ee 3e 27 ce ba 32 1b 66 ea 3e
       1.4337998898026228e-05 1.2587953811183415e-05
0003c0 97 d2 9f 0a fa 9b fc 3e 7d 15 3d d0 23 1e ef 3e
       2.7283939438365627e-05 1.4838091835787541e-05
0003d0 6f be 98 57 1e f3 be 3e b5 89 09 7e ba 52 c5 be
       1.8447447857164995e-06 -2.541918533703278e-06
0003e0 0a 35 bc d8 28 0d 0d 3f 87 f4 5a da 42 2c 01 bf
       5.5411156692478507e-05 -3.275469798101013e-05
0003f0 46 59 e2 b8 91 b0 06 3f a9 d4 a7 ce ba 7e f8 be
       4.327721318124699e-05 -2.3360288574598865e-05
000400 e9 10 b9 47 59 22 01 3f 06 3b 69 76 d0 ae f1 3e
       3.2680844892969876e-05 1.6863697420095427e-05
000410 a0 21 d7 37 6e bb fb 3e 26 2c 38 1b ff de f0 be
       2.644743971361304e-05 -1.6089515794386878e-05
000420 be 5e c9 07 68 eb d7 be 4f a9 27 a2 60 12 ee be
       -5.702866584820781e-06 -1.4339345459431092e-05
000430 11 1b 67 48 59 3d b0 be 42 41 da fe b8 7c fc 3e
       -9.679581879238581e-07 2.7167508895477013e-05
000440 59 79 d3 bb 91 2e da 3e a8 17 61 7e e8 5d 0b 3f
       6.242254071168963e-06 5.219808353777662e-05
000450 de 32 12 f3 b6 e0 d5 3e da cd d6 9f c4 c0 05 3f
       5.216071984237497e-06 4.149055528604078e-05
000460 26 9b 00 31 0e 96 fc 3e 47 08 36 ab 4e 31 10 bf
       2.7261880916419578e-05 -6.176989227493864e-05
000470 fe a4 be 14 89 4c 09 3f 4b c7 f2 f4 8c f1 ff 3e
       4.8253949528851204e-05 3.0463749962356898e-05
000480 ab a9 6e 25 dc fd a9 be a3 b8 d5 06 53 22 04 3f
       -7.746112470248726e-07 3.840270879150564e-05
000490 84 8b 23 40 1f b9 d2 3e 0e ab b0 c4 7a a1 eb 3e
       4.463942788942853e-06 1.3175382397608646e-05
0004a0 3b d4 fb e6 67 ea ec 3e 65 fa d8 51 97 b7 f1 be
       1.3788055383193612e-05 -1.689639349522001e-05
0004b0 40 04 a1 d4 51 08 db 3e 4a 6f f8 47 83 19 d7 3e
       6.445049914261902e-06 5.507387981686636e-06
0004c0 ec c8 7a 82 a6 2f 19 3f 13 67 36 37 22 17 05 3f
       9.607747835608014e-05 4.0226680449962974e-05
0004d0 13 31 85 3b 52 f0 04 3f dc e5 e7 be a4 29 d7 be
       3.993750528028159e-05 -5.52241088635485e-06
0004e0 98 9e fb dd 78 e3 04 3f 25 02 f3 e5 dc 2f c6 be
       3.984177214793916e-05 -2.6448922621771336e-06
0004f0 a0 5c b5 d4 f1 c9 01 bf cb 65 5e a4 f8 97 00 bf
       -3.3929531663084685e-05 -3.164985223165112e-05
000500 84 44 c3 0a 1c fc f8 be da 62 a1 2b 1b 45 00 3f
       -2.382736481438111e-05 3.103245894981394e-05
000510 47 80 1f 98 45 41 fb 3e 45 ac 34 72 fc be dc be
       2.5992363141713844e-05 -6.8535898976414504e-06
000520 bc ae 45 5a 10 df e5 3e c5 9f 16 f6 f1 8c c4 3e
       1.0429069171556122e-05 2.449818496248038e-06
000530 7a f3 a7 e7 f2 59 e8 be 74 0a b6 de fc bd f1 3e
       -1.1611634580960382e-05 1.6920222987613272e-05
000540 14 b5 7a b2 22 6d 10 3f 9e 56 c1 53 89 2a 16 3f
       6.266140246210069e-05 8.455718210717076e-05
000550 ed ab 49 5b e5 7c 07 3f da 13 85 86 3f da 00 bf
       4.4799565704099635e-05 -3.2143653529582725e-05
000560 1a 8e 94 97 04 78 f0 3e e4 95 47 f1 6f 37 05 bf
       1.5705890722318446e-05 -4.046736117739225e-05
000570 aa 51 f0 60 21 d5 dc be 7e a0 c4 ce dd a5 0a 3f
       -6.874213354119918e-06 5.0826865704956835e-05
000580 5e f1 d1 9a 55 c9 c2 3e 82 ef 03 c4 14 3f ff 3e
       2.239520844825117e-06 2.979889927788539e-05
000590 ac 25 ec 7d 53 36 f1 be a8 c6 67 47 df 1b f0 3e
       -1.6414844021849707e-05 1.5362621036580038e-05
0005a0 5a 59 7b de 2e 48 04 bf d7 f0 30 d3 cc 11 eb be
       -3.868477852868547e-05 -1.2907758536788803e-05
0005b0 35 18 63 73 e2 8b c3 3e 70 24 7d dd c3 5b e1 3e
       2.3301153318803935e-06 8.277157504859282e-06
0005c0 26 12 c8 79 de 31 0d 3f 15 ea 62 58 8d f9 f6 3e
       5.568466369612985e-05 2.191048908948598e-05
0005d0 e7 8e 83 a8 37 66 f0 be 45 53 00 aa d4 41 f3 be
       -1.5639578607186835e-05 -1.836505055060062e-05
0005e0 5d f8 f9 35 93 47 e9 3e 4c 57 16 68 f3 f8 f5 3e
       1.2054247860545671e-05 2.095457467062656e-05
0005f0 d0 56 5b 1d 8d 86 25 3f 0b 67 d0 6e b4 1d f5 3e
       0.0001642272242665028 2.013781970697848e-05
000600 68 67 08 45 d6 a6 c1 be 24 b1 18 60 83 51 01 3f
       -2.1042474502964684e-06 3.3032247312855015e-05
000610 af 2a 90 74 89 44 04 3f be a8 02 8d c6 dc ae 3e
       3.865761261330946e-05 9.197713328930265e-07
000620 5c 65 73 47 16 db c4 be a3 12 31 dd 3b e6 f6 be
       -2.486206138391121e-06 -2.1838522865874133e-05
000630 47 5a b7 14 b1 ee ee 3e 86 0b c0 85 d7 f3 f5 be
       1.474971272489885e-05 -2.093554245164886e-05
000640 dc 69 c8 ad 46 b9 f9 3e b1 b9 bc bc 3e a3 05 3f
       2.4532065127849892e-05 4.127059182078579e-05
000650 96 47 6a eb 42 8c 11 bf f5 f4 e7 1f 4a 91 d0 be
       -6.693991131559297e-05 -3.950008702788658e-06
000660 08 c3 93 f7 c9 9b 0b 3f a1 f0 42 d8 c9 3a de 3e
       5.265913109465085e-05 7.207308389375331e-06
000670 b4 1d 30 73 df db 17 3f e9 31 ae 5a 2f c9 02 3f
       9.101439790991963e-05 3.5831220279811654e-05
000680 c3 02 d0 ad 9c ca cb 3e d9 ff 9c a8 ec fb db 3e
       3.3129993952666023e-06 6.671924561107956e-06
000690 02 bf 77 5c 1c 88 f7 3e cd 8b 8d b2 aa 59 d7 be
       2.244156146774448e-05 -5.567136022263447e-06
0006a0 d0 22 24 82 0f 89 da 3e 6f e9 07 93 d1 a0 f6 3e
       6.326530668462115e-06 2.157993111671349e-05
0006b0 ce 35 21 ff 44 40 f6 3e 6e 5b c9 94 d2 e1 05 bf
       2.122025757272054e-05 -4.1736830642838795e-05
0006c0 41 1f cb ef da 79 c5 be 48 ca 0b 55 59 18 f7 be
       -2.5601383398555246e-06 -2.2025216199270705e-05
0006d0 cc ba 81 19 60 68 04 3f 8c b3 8e ac 97 3f 02 3f
       3.8924629905836417e-05 3.480607626413839e-05
0006e0 4f 20 2c 66 51 db ea 3e db 97 25 f5 f8 62 f0 3e
       1.2806277657442933e-05 1.5627490321710887e-05
0006f0 1b 48 b0 26 3b c7 1d 3f 6d 26 3c c3 97 d7 03 3f
       0.00011359499482946381 3.7845915725820456e-05
000700 99 83 0d e2 bb ee f2 3e 43 65 78 6e 78 7f e9 3e
       1.8055490844107525e-05 1.2158361143698787e-05
000710 cf 25 23 b7 56 6c ff 3e aa fc 0a 0f dd be e9 3e
       2.9967497035687283e-05 1.2276439947610181e-05
000720 1b 22 2f ec 78 d9 02 bf 72 54 37 d8 01 2c fd 3e
       -3.595257069083734e-05 2.7820494791292974e-05
000730 f8 c8 b4 08 16 cd d2 3e 11 2b 1c aa a6 a3 c3 be
       4.482535710880477e-06 -2.34118245224147e-06
000740 a6 93 a4 b8 da 89 c0 3e 6d 78 48 87 af a4 13 3f
       1.9715420808301896e-06 7.493325558313871e-05
000750 80 a0 c9 c6 61 05 12 bf 1a ae 62 b9 a6 70 fd be
       -6.874474792939629e-05 -2.8076213845080763e-05
000760 b0 46 df 11 7d 10 0e 3f d3 88 51 a9 9d bf 10 3f
       5.734330828456363e-05 6.389045513935662e-05
000770 81 6c 47 9e 40 13 10 3f 43 aa 48 f1 dc 09 e0 be
       6.13220395914594e-05 -7.647765905967617e-06
000780 ec d5 e6 90 f8 02 00 3f 3f 3e 0e 75 3f 86 f6 3e
       3.053971350956336e-05 2.1480947285433405e-05
000790 a3 70 cd 0d a6 87 b1 be 14 46 e6 6a b2 f8 cb 3e
       -1.0448621232317377e-06 3.3344593568039244e-06
0007a0 03 5b 52 92 70 85 d9 be 9c ac a2 1c 0a d7 f6 be
       -6.084739912945753e-06 -2.1781919521995764e-05
0007b0 1a 61 a4 85 da 04 e0 3e be 51 f1 94 2e 5e f0 3e
       7.638435068943939e-06 1.5609644205065566e-05
0007c0 e3 11 31 45 f4 42 ee 3e 32 cd d1 f6 65 50 0b bf
       1.4429826626146655e-05 -5.209742708070022e-05
0007d0 d1 bc 6e cc c1 7f 01 bf c4 f5 9e 0b 33 b5 19 3f
       -3.337679077419223e-05 9.80675130497133e-05
0007e0 e2 2f 2e 2b 3e 7d 13 3f 7e 3e 4e 2e 1c b3 e3 3e
       7.434551188917297e-05 9.393524530470389e-06
0007f0 e2 ab ef cc 79 0d f9 3e 5a b7 74 a6 19 eb f2 3e
       2.389205911505408e-05 1.8041954175255496e-05

medians f4 [96]
000000 10 11 53 3a 58 4d 4d 3a ff f0 4a 3a 92 12 48 3a
       0.0008051554 0.00078316545 0.00077415997 0.0007632162
000010 14 6c 4a 3a d6 03 4f 3a ec 7c 53 3a 7c 73 5a 3a
       0.00077217934 0.0007896995 0.0008067626 0.00083332486
000020 bc 3e 5f 3a 1e 7d 67 3a f4 cb 6f 3a f6 51 79 3a
       0.0008516123 0.00088305946 0.0009147518 0.00095108093
000030 5d ff 82 3a 14 c0 87 3a d2 94 8d 3a 24 9f 93 3a
       0.0009994317 0.0010356926 0.0010801798 0.0011262638
000040 4c 51 98 3a 39 4b 9f 3a dd 23 a5 3a 14 66 ab 3a
       0.0011620908 0.0012153155 0.0012599189 0.0013076686
000050 12 2b ba 3a 4d a1 c4 3a 3e 77 cd 3a 4b 1c d5 3a
       0.001420351 0.0015001685 0.0015675796 0.0016259042
000060 e2 d6 db 3a 38 1c e8 3a 65 3e ef 3a 79 0f 01 3b
       0.0016772414 0.0017708605 0.0018252848 0.001969306
000070 1e bd 05 3b b5 9a 09 3b b8 f6 16 3b fe 23 1c 3b
       0.0020406912 0.0020996754 0.002303524 0.0023825164
000080 04 60 16 3b 68 b2 21 3b fb 14 2d 3b e3 b8 2f 3b
       0.0022945413 0.0024672989 0.002641021 0.0026813082
000090 3d 3a 3b 3b 99 cb 43 3b e4 af 5a 3b e0 d3 68 3b
       0.0028568648 0.0029875992 0.0033369 0.0035526678
0000a0 68 d0 7c 3b 03 40 82 3b 75 0e 81 3b 2d 9d 82 3b
       0.0038576368 0.003974916 0.003938491 0.003986022
0000b0 ed 64 82 3b 32 bc 79 3b 48 90 85 3b 63 fa 89 3b
       0.0039793164 0.0038106558 0.0040760376 0.0042107566
0000c0 75 db 9b 3b 5f d2 b2 3b 66 c4 c6 3b 13 47 b9 3b
       0.004756386 0.005457207 0.006065893 0.0056542247
0000d0 ab 94 c1 3b c3 74 d6 3b f9 98 e3 3b 29 4a f1 3b
       0.005907615 0.006544681 0.006945726 0.007363577
0000e0 85 d1 00 3c 6f 56 03 3c 80 d1 03 3c 70 c4 06 3c
       0.007862453 0.008016213 0.008045554 0.008225545
0000f0 4c 88 1a 3c 55 e9 0c 3c f1 26 27 3c 4a 23 2a 3c
       0.00943191 0.008600553 0.010202155 0.01038439
000100 98 e1 27 3c 4b 1a 4f 3c 3e 85 34 3c 21 a1 33 3c
       0.010246657 0.012640546 0.011018096 0.010963709
000110 5e 19 27 3c f0 a2 5a 3c c6 90 38 3c 1d ca 54 3c
       0.010198919 0.013344511 0.011264985 0.012987641
000120 08 fc 3e 3c 81 00 82 3c a1 2e 94 3c 60 6b b1 3c
       0.011656769 0.01586938 0.01808864 0.021657646
000130 e6 7b cc 3c fe 51 b2 3c 19 58 c0 3c e1 ef ce 3c
       0.024961423 0.021767613 0.023479508 0.025260868
000140 62 5b dc 3c be cc e6 3c 97 e6 b3 3c 30 24 aa 3c
       0.026899043 0.0281738 0.02196054 0.020769209
000150 c9 ee db 3c d7 d8 c4 3c 8b 72 10 3d 77 14 0e 3d
       0.02684726 0.024029179 0.035265487 0.034687486
000160 b4 5a 15 3d e7 71 17 3d 3b f6 1e 3d 4c d5 2d 3d
       0.036463454 0.03697386 0.038809042 0.042439744
000170 11 c9 58 3d ca 91 7f 3d 5f 6d 69 3d 96 5b 87 3d
       0.052926127 0.062394895 0.05698907 0.066092655

threshold f8 []
000000 02 b5 a8 c6 4a 02 03 3f
       3.6256701453e-05
