ParamsAlgoAP/XMR/params7.npz (npz, 13664 bytes, 3 tensors)

threshold f8 []
00000000: 2aae fc5d aaf5 073f
4.56993691372e-05

medians f4 [96]
00000000: e0f9 293a d499 2d3a 5e19 2d3a d21b 2c3a
00000010: d647 2d3a 6005 313a cc57 343a 448f 3a3a
00000020: ae82 3e3a f21a 453a 04a9 4c3a 6b8e 543a
00000030: 86ed 5d3a a1a0 673a fa1c 723a 2362 793a
00000040: 4862 803a 2a17 863a 326f 8a3a b879 8f3a
00000050: 13dd 9c3a 553b a33a 9e46 ab3a bed2 b03a
00000060: 7cad b83a 78e1 c03a 9272 c93a 46ce d93a
00000070: 2946 de3a adb8 e43a 1af7 f93a ca6b 013b
00000080: 2d5d fb3a 3286 073b df7b 0f3b 6fbc 123b
00000090: c0c3 1f3b d897 263b 600e 363b 00e8 443b
000000a0: 6cae 4d3b e45e 573b b88d 573b 4c4c 553b
000000b0: cbb3 613b 4a64 563b 5ae0 623b 00e9 6c3b
000000c0: 181f 7e3b 7bfc 923b 0886 a23b fd38 9d3b
000000d0: 36ad a13b 19e4 b43b 2879 bc3b 6c27 c83b
000000e0: e869 d43b e5f6 da3b bcf0 da3b a84a dc3b
000000f0: fc45 f73b 34be fb3b 8202 043c 90fb 113c
00000100: e079 0e3c ea78 1d3c e060 103c 686e 133c
00000110: d49c 0f3c a101 413c c6c3 283c febc 303c
00000120: 784a 253c 91d9 4a3c 8f06 6a3c 5cb3 8e3c
00000130: 90cc a73c 5683 983c 74ff 923c 348a ae3c
00000140: 8ae1 ad3c fa6d b03c 06b2 8b3c fbf4 963c
00000150: 98cc d13c b95f b33c ba50 093d 0678 083d
00000160: b994 f23c d2b2 f03c ca28 0a3d 2a5a 163d
00000170: 08de 3c3d b2cf 6f3d a5b0 623d 8d9a 703d
0.00064840727 0.00066223484 0.0006603206 0.0006565425 0.00066101307 0.0006752815 0.0006879538 0.0007116685
0.00072673976 0.0007518969 0.0007807168 0.000810838 0.00084658747 0.0008835886 0.0009235885 0.00095132197
0.0009794915 0.0010230292 0.0010561703 0.0010946309 0.0011967741 0.0012453595 0.001306731 0.001349054
0.0014089788 0.0014715632 0.0015369228 0.001661726 0.0016958165 0.0017450057 0.0019070834 0.0019748085
0.0019177549 0.0020679352 0.0021893901 0.0022390147 0.002437815 0.0025420096 0.0027779564 0.003004551
0.003138448 0.0032862956 0.0032890867 0.0032546697 0.003443944 0.0032713586 0.0034618587 0.003614962
0.0038775858 0.0044856644 0.0049598254 0.0047980533 0.0049339784 0.0055203554 0.0057517476 0.006108215
0.0064823516 0.006682264 0.00668153 0.006722767 0.0075461846 0.007682586 0.0080572385 0.008910075
0.008696049 0.009611348 0.008812159 0.008998491 0.008765418 0.0117801735 0.010300582 0.010787247
0.0100885555 0.012380973 0.01428379 0.01741951 0.020483285 0.018617313 0.017944075 0.021306135
0.02122571 0.021536816 0.017052662 0.018427363 0.025610253 0.02189623 0.033524252 0.03331759
0.029611932 0.029382143 0.033730306 0.03670708 0.046110183 0.058547683 0.055344243 0.05874114

means f8 [96, 16]
00000000: 67e6 8391 c177 113f 0fbe 9339 bdee 143f
00000010: aa40 dfff 512d 1b3f 3ae2 f43a 5ec2 d43e
00000020: ca44 1a9c 9f40 09bf 0a4e 0392 d393 22bf
00000030: a89c 2ddc 8b5c e63e 4a89 3497 532b f93e
00000040: 1c8f 4596 6d75 e1be d568 e37f d4a8 49bf
00000050: b428 16ae 1c58 233f 10d5 624c b340 fabe
00000060: f352 ef7e b6ff 05bf f6b6 66fb 211c 4b3f
00000070: e5aa 0785 e35c 423f ff1e ade1 fd03 0f3f
00000080: 21f8 bfa5 4ca3 eebe bf3c bf08 0bd9 fc3e
00000090: b06f 62f3 8274 e0be f3db 72d8 e83e ec3e
000000a0: e6cd cd55 1e92 e4be 41a6 addf 8e3c e63e
000000b0: 7713 d323 7809 ff3e 4361 3607 0369 d73e
000000c0: b75f a243 357f f03e fcac 271d ebb6 ebbe
000000d0: ab52 86ab 426d 02bf 6d83 32b0 c441 c83e
000000e0: 7ba8 5baa a302 103f c935 1b57 88da 113f
000000f0: f6aa d2f0 7f9e 023f 8636 f550 5f71 033f
00000100: 2765 e743 716c 013f 4f18 a9dc 293b f5be
00000110: 33b9 7c12 86a4 093f d254 d787 bd5f d13e
00000120: 6365 0cc7 3792 fcbe e120 1006 cb0a f9be
00000130: 0de8 260d c2e1 ab3e dbb5 92a8 fd71 f93e
00000140: d31c 7c3f 8aac f43e 301d f032 7c35 ddbe
00000150: 29ac ab81 e4e5 f73e 9579 576d ff57 073f
00000160: 8a51 40fb 5b99 03bf 5780 dbc6 8e4b e33e
00000170: 74c3 d415 4084 013f 729c 3e2e b807 f73e
00000180: a233 c620 5c6c 0d3f f94c 3a6f be33 f33e
00000190: 0a03 ac55 58fa f73e 606c 9c6f 7f54 dc3e
000001a0: 688d 7fbe f184 ed3e 8ce9 6086 64d2 eebe
000001b0: 6f48 f638 d9f6 e7be 84af 899f 5da8 f3be
000001c0: 9e20 b6e2 efd8 183f 215b d741 72d9 0a3f
000001d0: 8593 c03e 7488 ccbe 3fcd 2579 c785 023f
000001e0: d931 3f55 a8e6 c2be 8f4f 56c8 3501 17bf
000001f0: 75ae a6a3 b9ea f23e 1f10 ad88 dd7c a6be
00000200: 0cf7 61b5 4ca8 023f 7478 438a 4e40 f83e
00000210: cdf8 bbcd 257b e5be 6fb6 b0ef 7d01 f5be
00000220: 02fb 9531 483a ca3e 4a2e 1e9a 576c 0a3f
00000230: 99f2 7ef7 a95a d4be 1fc7 37be 6835 ea3e
00000240: a50a 35aa a357 013f cf24 9727 bec8 0c3f
00000250: c8df 3b31 d3eb 003f 9827 6199 7787 e3be
00000260: a206 a318 af09 f0be 33eb 0ab5 bc80 153f
00000270: 8b50 2324 4057 c33e 7e83 c243 ab15 f53e
00000280: 7a65 7b85 5a6e ec3e 7cc2 02f7 72d7 bf3e
00000290: 5aef 24be da12 e9be de3a e843 af25 f2be
000002a0: 0931 0ce0 b3a8 7a3e 694c 98be 9f31 e0be
000002b0: 3f09 b71c 937b c63e f8e8 3b0c 0074 fc3e
000002c0: 2616 9c56 e4db 0c3f d473 c987 6a98 f63e
000002d0: 7427 36f8 f331 10bf 7c56 8065 6522 fa3e
000002e0: eb9a a457 8cfd fb3e 1b89 3f21 2c1b 0c3f
000002f0: 1a7d cc23 52b8 01bf 9b86 3d72 55a9 103f
00000300: 92ed d1e5 b26d 093f 12f6 1e5c e238 d5be
00000310: b38b 0698 5a23 c73e b5dd 408d 7b89 fbbe
00000320: 757b f7f0 617c c93e 1928 b13f d2b9 bdbe
00000330: 45ce 62be fa72 f03e 591c 98c1 17bf 9abe
00000340: 6e9c ea6b 3aeb fabe 5c2a 7611 3c49 fc3e
00000350: dd54 1724 be26 e43e b561 da0f 11b7 023f
00000360: 6f44 fda1 f1e0 fc3e 35e7 31d5 5dd5 ba3e
00000370: ffcb 723b b08b f33e 8f5c 4089 9c05 113f
00000380: 8d25 2c42 2c3b ddbe b9df 0147 eb78 103f
00000390: 8946 b731 7b48 b9be c47f 1a48 39ab 013f
000003a0: 9cc3 cbc8 eb0b 023f 271f 9021 7cd4 e63e
000003b0: 4a86 3fa3 591a d03e 9c1c 57d1 fa3a 003f
000003c0: f20d 044b bfa2 fd3e 0397 7172 6fc2 f83e
000003d0: 9a63 d981 0a50 e9be 9ae0 bc22 9916 e6be
000003e0: 2ea4 e970 f083 0c3f f51c 0ca8 4046 01bf
000003f0: a9a3 0944 bb28 073f 02a8 f556 c4b0 f8be
00000400: 976a 6544 34b8 003f 9493 9c38 84bc 033f
00000410: ad5b d3b7 1532 f43e 505c 12df 1438 edbe
00000420: 9b6d 5361 0a66 d4be af30 a1eb ccdb d6be
00000430: 1fba 5667 58e8 cb3e a7e7 a12b f335 ed3e
00000440: 7627 9c47 1eeb e13e f7a9 ef93 f9bb ff3e
00000450: 63fe 984e 886a f33e 6b04 f53a 8ed3 013f
00000460: 0e40 9399 784f f43e d0e4 9157 eb46 11bf
00000470: 69c8 6dc3 b92b 093f 71a3 3a61 192f 043f
00000480: a415 e524 8d36 e13e cf69 6650 19da 063f
00000490: 5413 32af 4456 c6be 4f37 11b2 a127 d63e
000004a0: 5edb 3654 88c5 023f f758 864c f221 f7be
000004b0: a370 c33b b920 d33e fe06 ba68 a596 d23e
000004c0: 67e4 0fc7 2026 143f 8712 4534 7d37 043f
000004d0: 51d2 2e22 a9d5 053f d8f4 832c 6977 83be
000004e0: 954d 4b87 5e66 fa3e 90a9 43f4 0cd5 cfbe
000004f0: 93e9 4f83 c1a7 fabe 611d b73c 42a4 f6be
00000500: 6ade a7b3 edce fbbe 2fb0 2e24 256f f13e
00000510: dc86 eb92 1d05 f43e ce57 5888 99cf f4be
00000520: 3aad ba0d 9719 c03e d147 8e9e 3488 da3e
00000530: aa3d 8834 c4ab f2be fc9f e244 20d9 f03e
00000540: 5f03 42b2 1799 0b3f 4068 ed5f 5ac5 183f
00000550: bfa5 d871 5d8d 083f 1b77 c028 4a7e f7be
00000560: c723 1cca 673a f33e c501 709b 9e51 01bf
00000570: 8ac2 e5e4 2fde 99be 6a47 3b86 1c05 0a3f
00000580: fc75 bfb6 ed6b e3be 6f2a 3e58 cdd2 f03e
00000590: a8ed 559d 4211 f6be 4ab4 a08f ec41 dc3e
000005a0: 5477 965a c4de 03bf e5a0 58cf 3139 f0be
000005b0: fed7 2f48 c047 e63e 233a 8761 a8ef d33e
000005c0: 8f14 fd66 8889 0d3f f276 3590 15e5 033f
000005d0: b45d b0ce f997 ecbe 6439 35ce b943 e7be
000005e0: 58ae 0279 7f8a e03e 5068 c423 b714 f53e
000005f0: a16d 5a9e 21ab 213f 99bc 50ee 90b2 f73e
00000600: 4d03 481d 3c37 b23e a766 67b9 6edb fc3e
00000610: bc41 d3bd 2467 0a3f f794 b24a b058 a2be
00000620: 92ba 5ccb 48d0 d0be 8bb6 c6e1 3143 debe
00000630: 410a 3c2c 7abb d23e 6c5e c78a 2fd1 dfbe
00000640: 7c3e 6419 b7a6 f43e f03d 4ace c63f 063f
00000650: ae6f fb02 ac17 10bf 6c3c f241 37f4 c1be
00000660: 1628 0013 2028 0a3f f46b c3ad 86b8 e6be
00000670: 58ed c7b5 2ed1 173f 9832 7fb9 a25a f63e
00000680: 1ad1 f119 8f4c de3e cd8c ac24 f5e7 c13e
00000690: 1437 2806 3039 003f 481f 8d5f 5394 c5be
000006a0: 2901 383c 42ab d63e 1e21 65c6 81b0 f43e
000006b0: 7ab6 e43e 82e2 f33e 685f f9eb ad6a 05bf
000006c0: a19e d736 cdf9 dcbe 5c91 e8c8 42fe f3be
000006d0: 50a9 c6c4 eb25 023f 9192 de12 b1c2 ff3e
000006e0: 0aac d99c 3a78 f13e ae36 7564 a99b f03e
000006f0: 061a 56f4 4bb2 1b3f 71f4 d641 c931 fa3e
00000700: e271 995a ae77 f33e da63 0c21 5d33 e33e
00000710: db2e 1670 7613 003f 394f 66ad 0b1d f03e
00000720: f224 830d e8fe f9be fee4 c0a2 ada4 e23e
00000730: 42ce d61b ab92 dabe 66e6 566f c573 e2be
00000740: 4a77 3947 a4f0 cc3e 91b0 7d10 0868 123f
00000750: c1bd 2cfc a301 10bf 4108 dc8a 2047 f8be
00000760: 6360 2f37 a10b 043f f4ba b416 9345 153f
00000770: 633a f5c7 94a5 103f 2000 7a7a 6c2c d0be
00000780: d0b5 933a 646a fa3e cdac 6251 c438 f53e
00000790: f7b2 43f6 38af bc3e 781e d089 9055 f63e
000007a0: ac9c eaa6 916d d73e 0caa 54ea 6ba0 fcbe
000007b0: d7cd 12ef e9c6 ed3e 8fd2 11c9 9764 ed3e
000007c0: a061 8fdb 035e f13e 984e b15c fe81 03bf
000007d0: b905 8ba7 4c3b 04bf 1fbb a8dd 8196 123f
000007e0: 2c8c cf2b f7ef 0f3f ddca 4027 7343 e93e
000007f0: 198d 986c 5152 f63e 79e6 98d7 0520 f33e
6.663435886258285e-05 7.985143601606951e-05 0.00010367215142470751 4.949390969337869e-06 -4.816519823437058e-05 -0.0001417346729853805 1.0662798450146387e-05 2.4003261796975713e-05
-8.32495852227211e-06 -0.0007830655665899364 0.00014758443925827968 -2.5036559940534947e-05 -4.195953066924397e-05 0.0008273282936010751 0.0005603896079809627 5.9157548284503515e-05
-1.4609283589091998e-05 2.7511429422419307e-05 -7.846414160454649e-06 1.3468618602947477e-05 -9.808910073272813e-06 1.0603215732723984e-05 2.9599179687495266e-05 5.5814272061016595e-06
1.5732676026475076e-05 -1.3215315367318206e-05 -3.514632902860045e-05 2.891648706774091e-06 6.107448515605019e-05 6.81062427034452e-05 3.551319068980333e-05 3.708431369862674e-05
3.323288591490009e-05 -2.0247561943763638e-05 4.890951305324062e-05 4.14228099772825e-06 -2.7247584912880827e-05 -2.3882065196573972e-05 8.309443962275124e-07 2.426650693070584e-05
1.9716248032455884e-05 -6.963950723643753e-06 2.279092596328358e-05 4.4524652974098324e-05 -3.7382239867297834e-05 9.20064322990092e-06 3.341026852366524e-05 2.196326649053473e-05
5.612045433443033e-05 1.831257300339854e-05 2.2867117290384236e-05 6.754414920508064e-06 1.4075905667660079e-05 -1.4697001642462159e-05 -1.1427045847143596e-05 -1.8747023178652535e-05
9.47853483720417e-05 5.1211165764611254e-05 -3.4014014911480996e-06 3.532900804517147e-05 -2.2531755039299694e-06 -8.775606882799172e-05 1.8040557031957832e-05 -6.701873343857785e-07
3.5586205442845754e-05 2.3127745081612643e-05 -1.0242960733372261e-05 -2.0032718549048452e-05 3.1265812025499523e-06 5.0398276712018493e-05 -4.852808949293166e-06 1.249724841209974e-05
3.307789054442693e-05 5.490141206682954e-05 3.227461107074798e-05 -9.31223329926952e-06 -1.5294864660792198e-05 8.202697541552228e-05 2.3056057055580065e-06 2.010788397000277e-05
1.3556990026075288e-05 1.8979071363772707e-06 -1.1956048130749571e-05 -1.7306523881595026e-05 9.931249423891746e-08 -7.721826437856291e-06 2.6801483039305995e-06 2.7135015229420308e-05
5.5044084389204836e-05 2.1548629307910895e-05 -6.177951404687053e-05 2.4923667609830298e-05 2.669374723853871e-05 5.3608211743288145e-05 -3.379822417159447e-05 6.355842611818279e-05
4.85010357147111e-05 -5.059767717639008e-06 2.7582765939766968e-06 -2.6261369228756336e-05 3.038152392539413e-06 -1.7717995877291702e-06 1.5687120957520615e-05 -3.9855325581522165e-07
-2.5671825592124232e-05 2.6975701158652547e-05 9.608907137451827e-06 3.569622820726333e-05 2.7540862105827583e-05 1.5993990316862543e-06 1.8640191879536885e-05 6.493347092405482e-05
-6.969247837282182e-06 6.283699053877171e-05 -1.5069919702025915e-06 3.370064315544278e-05 3.442109400520548e-05 1.0886201424767005e-05 3.839237752574474e-06 3.095701155647024e-05
2.8262835884097387e-05 2.3612511679613732e-05 -1.2070017017128295e-05 -1.053250988257452e-05 5.4388785532940055e-05 -3.294834914951444e-05 4.4172491929845535e-05 -2.354669180474473e-05
3.1890006129760614e-05 3.7644181317276305e-05 1.926006688254447e-05 -1.3932737575479481e-05 -4.8634042475141995e-06 -5.4499138802505215e-06 3.326845041860178e-06 1.3928767078608672e-05
8.544173613528788e-06 3.0264164930496645e-05 1.8516676311584867e-05 3.400113871033439e-05 1.9369539221270096e-05 -6.590663351059849e-05 4.8009497212301456e-05 3.84978885937308e-05
8.207841486150228e-06 4.358663322819348e-05 -2.662776176944756e-06 5.2821185657201424e-06 3.580400746321684e-05 -2.2060969770609233e-05 4.560429200686222e-06 4.431834564779098e-06
7.686209734449196e-05 3.856039851027776e-05 4.164621738969989e-05 -1.4503634405269795e-07 2.5176887407619265e-05 -3.7946973937458926e-06 -2.5420471690276702e-05 -2.1592746447555103e-05
-2.6520075360607366e-05 1.6626511079628918e-05 1.909254313659554e-05 -1.9846855613257605e-05 1.919264929947003e-06 6.3257343548995e-06 -1.780601749784358e-05 1.606764663422687e-05
5.26390415709402e-05 9.449352363102934e-05 4.682961865072219e-05 -2.2404975013149476e-05 1.8337389184916954e-05 -3.30330398625764e-05 -3.8546202043354654e-07 4.962914752372381e-05
-9.260938632789193e-06 1.6044088183823248e-05 -2.104513426591311e-05 6.737116786265332e-06 -3.789936756535989e-05 -1.5471855439625702e-05 1.062406432160087e-05 4.7531516646618975e-06
5.633780972273086e-05 3.7946434555220345e-05 -1.3634517435120011e-05 -1.1093403776610187e-05 7.887367047785369e-06 2.010433148411816e-05 0.00013479981787588045 2.2599719972923695e-05
1.0857439650681768e-06 2.75203306844054e-05 5.035954357313378e-05 -5.467665195226088e-07 -4.008677185570119e-06 -7.215137454980761e-06 4.466136207306185e-06 -7.58579532741215e-06
1.9694548961500597e-05 4.243684251037025e-05 -6.138789535320321e-05 -2.140279789459743e-06 4.989002115969602e-05 -1.0834124104899444e-05 9.085509868349739e-05 2.1318479042342105e-05
7.2238584883819625e-06 2.1345715927198473e-06 3.094365890286672e-05 -2.5724646061409726e-06 5.404705862855049e-06 1.973102589517092e-05 1.8963622943227243e-05 -4.084914462215602e-05
-6.908366100933907e-06 -1.9067007594257348e-05 3.461480864371208e-05 3.028918688809335e-05 1.6660351141711167e-05 1.5838674042803723e-05 0.00010565365399459883 2.4981000128699826e-05
1.8565658740464753e-05 9.155578511820255e-06 3.0662586151112516e-05 1.5366992408851635e-05 -2.479145845838289e-05 8.8898060185299e-06 -6.335478642527686e-06 -8.798709567925388e-06
3.4499176367182575e-06 7.021474095631116e-05 -6.105960259782715e-05 -2.315315275947688e-05 3.823362103333517e-05 8.114538438939637e-05 6.350250804596775e-05 -3.85607010111591e-06
2.5191871519438848e-05 2.0238633702857057e-05 1.7097272229607424e-06 2.1299587945859737e-05 5.585671358921518e-06 -2.7300497682217594e-05 1.4198783420438683e-05 1.4015646487155752e-05
1.656269680325314e-05 -3.720815183130588e-05 -3.8588787850023445e-05 7.090728414803044e-05 6.0915690006678756e-05 1.2046564030842303e-05 2.1287493643507274e-05 1.823910631613141e-05
