ParamsAlgoAP/BTC/params18.npz (npz, 15124 bytes, 3 tensors)

means f8 [96, 16]
000000 35 8d 28 0e f1 61 13 3f 45 0a e2 a8 4a 41 f6 3e
       7.393869194820687e-05 2.122406527194978e-05
000010 1e a6 f9 33 ba 53 16 3f 4f 1e db 70 8f ac df 3e
       8.517097466555947e-05 7.551685269730956e-06
000020 c8 84 c0 ee 5a b5 15 bf e3 d0 a6 e8 e0 42 11 bf
       -8.281104572961933e-05 -6.58464215693186e-05
000030 2e 01 52 d5 3c a6 f6 3e e0 44 b2 97 b4 f1 b8 3e
       2.1600118391252778e-05 1.4867879077100222e-06
000040 28 2f 8d f8 c9 4d 36 3f ab 0b f0 d0 90 61 53 3f
       0.0003403299420383526 0.001182929441484441
000050 ea cf 19 2a 71 50 48 3f 93 11 42 55 1b 28 fe be
       0.0007420113144704897 -2.8759638852197933e-05
000060 bd 36 71 5b 5c a3 41 bf ae 44 fe e8 4a b5 63 bf
       -0.000538272949492678 -0.0024057829941247144
000070 57 2f 96 b4 96 97 f7 3e 64 c7 e4 13 41 ff 0e 3f
       2.24992211648589e-05 5.912225104721841e-05
000080 42 6e b2 bb 18 14 ed 3e 00 e5 3c 60 70 9e 06 3f
       1.3865710448527435e-05 4.3142132226179145e-05
000090 2f 41 dc 63 28 ab ed 3e b7 1d 0c c8 95 6a ed 3e
       1.4147083784916095e-05 1.402680777708066e-05
0000a0 00 2d 4d 5c 08 d6 ca be c3 b4 2a 8a 08 69 e5 be
       -3.199108251560772e-06 -1.020922019753302e-05
0000b0 82 d5 08 22 15 45 04 bf f8 83 27 92 8f 6b e8 3e
       -3.866167776715291e-05 1.164443944373822e-05
0000c0 bf 0a aa fa 80 10 25 3f cc b4 c9 a3 16 ce 21 3f
       0.00016070913746453992 0.00013584162106231588
0000d0 e9 1f 3f 48 29 d5 8a be 76 85 be 67 60 d7 0d bf
       -1.9991890465157732e-07 -5.691779094197772e-05
0000e0 a2 f0 95 56 f8 17 23 bf b6 73 70 13 4d 58 30 bf
       -0.00014567285988309914 -0.0002494037793797048
0000f0 f8 63 95 68 68 bb 01 3f c4 3a 09 a8 21 ef 12 3f
       3.382122401757859e-05 7.22278873663647e-05
000100 cc 04 3a f8 d4 13 fb 3e a3 26 f5 56 1f 23 e4 3e
       2.5823086174718565e-05 9.602163770455854e-06
000110 cf 7e 0a 33 ef 01 f0 3e 49 a2 f5 da 34 b4 f6 be
       1.526599516188284e-05 -2.165215636065952e-05
000120 6e 58 3f 7b 72 e3 f9 be 72 c6 50 19 ae e6 cd be
       -2.468916473204917e-05 -3.5644881770872987e-06
000130 a0 aa ce 06 18 a8 c3 be 0a ca 5d 54 a5 ad d2 3e
       -2.343251301846941e-06 4.453254694657916e-06
000140 0a d4 c0 72 6e ad 25 3f 15 d1 68 0e 99 c9 03 3f
       0.00016538594479845208 3.7741645247642775e-05
000150 39 2d 00 c2 cc fc 03 3f 8d 42 0e 95 5e c6 ff be
       3.8123129570600445e-05 -3.0302887640556434e-05
000160 ae 68 84 2f 57 18 27 bf 29 fb 18 cd f4 0e 06 bf
       -0.0001762014796973846 -4.2073102701758944e-05
000170 74 c8 8f c1 dd 04 bf be ca 9d ca b3 28 db 13 3f
       -1.848876996609947e-06 7.574497153461156e-05
000180 84 56 59 c1 a8 bf fa 3e 6c 89 78 24 28 85 02 3f
       2.550951838594394e-05 3.532437090948939e-05
000190 b6 99 db 87 3f 1a d9 be 98 35 b5 47 7a dc e7 3e
       -5.984909987799571e-06 1.1377926276391265e-05
0001a0 f5 f9 1f 2c 6d fb e3 be cb 7e a8 27 31 09 f7 be
       -9.528224271801599e-06 -2.1968752188182902e-05
0001b0 51 6d db 4f 3f 4e d0 be 53 81 2e 0d f4 56 ea 3e
       -3.887570753948023e-06 1.2559729304418307e-05
0001c0 be b2 70 cd bb 42 1c 3f 8a 83 3d 72 1e f7 0c 3f
       0.00010780593162058435 5.5246941228721014e-05
0001d0 f4 8f a4 e2 11 c7 05 3f 9a c6 48 f9 6d 37 09 bf
       4.153750735927378e-05 -4.809669841100463e-05
0001e0 b5 c0 92 b7 87 14 20 bf 5d c8 fe ac a8 2e 23 bf
       -0.00012268215849565103 -0.0001463490393667802
0001f0 8e 3b f6 8b bc a8 e0 be 40 48 74 32 0e 01 1a 3f
       -7.943690774307192e-06 9.919785644665977e-05
000200 c8 23 6f 9d 62 1c fc 3e 39 46 7a 49 52 fa f8 3e
       2.680862402451906e-05 2.382070360213413e-05
000210 94 8c ba 1a e2 66 ee 3e 9d 73 d3 bd 4f 4d f1 be
       1.4496749677411673e-05 -1.6500471123548713e-05
000220 42 2e 5d c1 97 72 7b 3e 6c 21 77 13 da 8c f4 be
       1.022503826861836e-07 -1.9598200393906707e-05
000230 05 e0 b2 bb 1b 2d c7 3e dd 32 6d 05 b1 0f fc 3e
       2.7628188639904093e-06 2.6761336211311423e-05
000240 92 09 39 89 ae b9 1d 3f 16 72 68 01 fb 3b 0b 3f
       0.00011339309485783867 5.194530256267067e-05
000250 ae e3 57 f1 c3 d2 fc be 19 3d b4 52 48 21 13 bf
       -2.748804316430084e-05 -7.297519612258322e-05
000260 f7 bc 9b 41 4f 98 17 bf cb 86 3c 2e 62 31 02 bf
       -9.000762693366417e-05 -3.4700211271732744e-05
000270 50 8e 9d ea 29 e0 b1 be 19 d5 b5 83 8d f2 16 3f
       -1.0654711481644084e-06 8.753765808030104e-05
000280 e3 f5 7d 42 27 7a d7 3e 73 3a 86 09 24 c1 e0 be
       5.597391499521126e-06 -7.989147250223407e-06
000290 0d fa 11 56 d8 f6 d6 3e 92 43 b7 20 1b 82 ea be
       5.475101120143531e-06 -1.2640107363377944e-05
0002a0 2f 38 3e 7c fc c2 e0 be bb d4 49 fc 0c f7 dd 3e
       -7.992584762719298e-06 7.144222710854852e-06
0002b0 a9 3b d8 8c 61 6e f4 3e 9f d6 cb 27 fd 8b f0 3e
       1.9484687802824984e-05 1.5780288310693527e-05
0002c0 0b e3 1d fa 90 41 13 3f 14 ae 6f 5e 21 69 17 3f
       7.345626229761039e-05 8.93046013598564e-05
0002d0 c1 94 49 68 47 fd e0 be f8 7a 2c 88 7b 11 14 bf
       -8.10116331102296e-06 -7.655445555741411e-05
0002e0 2e 17 2c e1 a1 b8 15 bf d1 be ea 2d bc ae f3 3e
       -8.285987886943728e-05 1.877075089379185e-05
0002f0 92 95 bf f7 18 71 08 3f e4 86 09 e6 26 b8 11 3f
       4.6619009452612774e-05 6.759393137081463e-05
000300 d6 d3 b1 c1 be 18 b1 be cc fe 9d 16 1b 0d f3 3e
       -1.0190403887642625e-06 1.816863497294714e-05
000310 fa c6 65 33 8e ea ab 3e 8e c0 95 8a d2 77 fc 3e
       8.319685551995224e-07 2.714925418473339e-05
000320 4c 9f c4 30 02 04 01 bf 68 de 4d 4f bd 30 f6 be
       -3.245479283214714e-05 -2.1162403715162264e-05
000330 3b 8c ea 23 ed 77 e4 3e b1 a8 c8 f2 e9 9a ec 3e
       9.76012335957541e-06 1.3639989981124473e-05
000340 4b 9a 80 ee 7a db 11 3f d2 6a 1e a0 f8 de eb be
       6.812036338086598e-05 -1.3289919482952469e-05
000350 b7 3c cc 2b 99 2a 04 3f 03 5a 87 0f 43 c8 fd be
       3.8464354906614225e-05 -2.840258909649931e-05
000360 3c f3 a8 54 1c 38 0e bf 56 d0 e4 48 f1 34 ee be
       -5.763851602977882e-05 -1.4403727871405293e-05
000370 9b e5 ea 7f 91 43 f6 3e 55 fb 99 6c 4d b5 10 3f
       2.1232546709914345e-05 6.373677310909699e-05
000380 54 02 96 75 31 d5 f0 3e b2 94 d6 ee c9 5e f6 3e
       1.6052995623907294e-05 2.133395076033403e-05
000390 94 4b 72 85 e5 09 e9 3e bc 77 ec 26 53 66 e6 3e
       1.1939362748491525e-05 1.0681012296450433e-05
0003a0 9b b7 53 3e 53 ca be 3e 54 49 8a ae 5d 56 da be
       1.8352468427701053e-06 -6.2793176104517755e-06
0003b0 20 5e 92 cd b3 f0 cb 3e 18 1f 20 72 73 0a ec 3e
       3.3307365866033133e-06 1.3370906859946514e-05
0003c0 b1 a9 6f 32 e2 5e 0c 3f da cc b0 dc a9 fb 15 3f
       5.411269949447422e-05 8.385872131171386e-05
0003d0 f1 c9 24 7a ca 19 e0 3e a4 dc 2f 85 e3 cb fc be
       7.67743387495177e-06 -2.7462425645521788e-05
0003e0 ca b5 b9 07 07 28 11 bf a0 dc 6b c9 b8 32 02 bf
       -6.544630917356474e-05 -3.471018242422988e-05
0003f0 40 ef d9 0a 2e ac 05 bf a7 12 5c b6 29 60 0a 3f
       -4.1337161161585177e-05 5.030753417937144e-05
000400 28 db 30 e1 c2 eb 02 3f da ec 6b 0b 68 9b cd 3e
       3.608883357524565e-05 3.5294361525585516e-06
000410 fd ee 21 55 71 71 e5 be 70 47 77 71 08 a3 f6 be
       -1.0224883826951808e-05 -2.158818014470022e-05
000420 65 9a eb d5 cf 97 02 bf 47 ce 3f aa 15 2e c6 be
       -3.546336187359027e-05 -2.6440641978044347e-06
000430 5b 8c da ef c8 f3 fd 3e 95 20 84 62 f7 1b fd 3e
       2.856472473545774e-05 2.7760737936894325e-05
000440 5d 5f 7f 3b 8c de 18 3f 50 17 64 96 3d 29 10 3f
       9.486895476073843e-05 6.164968872121352e-05
000450 03 1b 2e 53 c9 d6 01 3f 17 ac 1a fe 45 73 0c bf
       3.4025210331958495e-05 -5.4264615539999384e-05
000460 85 3b 37 d9 68 86 10 bf b4 a4 e1 05 77 7f 00 bf
       -6.303801483585447e-05 -3.146726588527365e-05
000470 e5 be 53 65 88 a6 ed be 84 b1 55 3a 05 3d 0b 3f
       -1.4138469092788784e-05 5.195305065339425e-05
000480 67 ea 6e 7e 5e 21 f7 3e bd b4 8a 3e a5 50 f9 3e
       2.2058818924123454e-05 2.4142285755136774e-05
000490 40 b5 0c ce fd 84 b4 3e 62 79 de 0a 9f 85 c7 3e
       1.2230573746650487e-06 2.8040359074242336e-06
0004a0 2d 4b 68 b4 b8 a0 fa be ff d9 12 08 3c c8 b1 3e
       -2.5394266481691664e-05 1.0598996882778481e-06
0004b0 c1 85 f1 ab 99 fc e2 3e e5 86 42 0e cf d3 02 3f
       9.053573533704115e-06 3.591037401064009e-05
0004c0 25 5d 42 f0 0f eb 13 3f 38 f7 1e f8 f2 aa 09 3f
       7.598194867096794e-05 4.895738585684737e-05
0004d0 e3 84 63 79 97 1b f2 3e 01 af 85 93 25 1a 10 bf
       1.7268924772721814e-05 -6.142477366715902e-05
0004e0 d0 0f 98 4e da 62 12 bf ac e5 11 b4 0c c3 f3 be
       -7.013757171853087e-05 -1.8846428478690925e-05
0004f0 a3 85 d2 89 e8 69 a0 3e 9b 82 fe ee 21 60 09 3f
       4.891665132020358e-07 4.839995915451486e-05
000500 f9 a1 4c a7 d9 72 ec 3e 50 8f 7e 35 04 15 f2 3e
       1.3565365614435521e-05 1.7244430040044237e-05
000510 5c 0a 9a 4d 2f 4c e7 3e 7b 31 c8 f2 f6 0f fa be
       1.1109159845594848e-05 -2.485500515274481e-05
000520 d2 95 61 ff 54 5a f0 3e 69 b8 f7 bd ff 53 bf be
       1.559530206698084e-05 -1.8673015275100284e-06
000530 40 ef 3c 48 c8 d0 00 3f 81 4b 7a 95 cb ce f6 3e
       3.2073127867764204e-05 2.1751207298036354e-05
000540 8f d2 14 ad eb 5b 0e 3f f3 56 f7 c5 d0 d5 08 3f
       5.790532089592237e-05 4.7369416957527675e-05
000550 80 df ea fc 13 01 06 bf f5 4a 07 c5 07 2a 0e bf
       -4.1969702228638293e-05 -5.753360949580468e-05
000560 25 68 b1 c0 d4 76 0e bf e1 07 d9 cb 11 ed 0a bf
       -5.8105819413526134e-05 -5.1357369994522795e-05
000570 52 aa 5e 4f c9 69 06 3f 7a 2a 6d 03 7c 11 14 3f
       4.274983977777383e-05 7.655448358182852e-05
000580 24 9d e1 20 35 81 f0 3e 23 70 61 12 e1 4b b6 3e
       1.5740124631594428e-05 1.3289691849416035e-06
000590 de 71 16 e4 e9 07 d7 3e 3a 68 de f1 de 65 e3 be
       5.49099746774111e-06 -9.249655302846175e-06
0005a0 d6 bb 55 a9 e5 79 d1 be 71 45 ff 00 48 04 bc be
       -4.1666413797954846e-06 -1.669926863446681e-06
0005b0 86 d3 97 b8 27 8c e8 3e 58 0b 7e 0b 1e 77 ca 3e
       1.1705151126564924e-05 3.154909872850173e-06
0005c0 14 73 93 20 85 a4 04 3f 98 20 87 86 20 8e 10 3f
       3.93727423870558e-05 6.315301437276528e-05
0005d0 c0 b4 ea d9 79 c0 00 bf cf 78 6f 13 70 87 0a bf
       -3.195163593736885e-05 -5.060015467227426e-05
0005e0 3b 03 d4 65 84 f0 01 bf 5b 3f 54 6f 55 c4 fd 3e
       -3.4216919383217634e-05 2.838795531540039e-05
0005f0 bb 88 4a ea 40 2e f5 3e 20 58 8a de 5c 11 0a 3f
       2.0199468638745022e-05 4.972042717558988e-05
000600 2f db 96 93 c1 3f f0 3e df d0 d9 d2 a0 a1 f5 3e
       1.549629926042155e-05 2.0629272674502964e-05
000610 a8 25 7a 2e 9e 52 f9 3e f2 9a 26 67 67 d5 d0 3e
       2.414963355915558e-05 4.013445151696285e-06
000620 b4 a6 37 d8 18 99 e8 be da 32 ba 15 81 23 f4 be
       -1.1729257272957836e-05 -1.9205749920691826e-05
000630 25 fe df e5 9c 9c f6 3e 5b 5c 3f 94 4b d2 f1 3e
       2.1564263413152485e-05 1.6995874162120287e-05
000640 98 ff 9c 20 83 d9 11 3f ef 98 de 6f ff 14 df 3e
       6.809103811366982e-05 7.410531677998067e-06
000650 cb a8 d7 e6 b2 ef 0a bf 68 ac 5d a3 ef 62 03 bf
       -5.137695994135576e-05 -3.697675530996912e-05
000660 b7 e7 ea b3 28 88 f1 be 5a 69 7d 4f 04 1e dd be
       -1.67196951632376e-05 -6.942094152718266e-06
000670 fb fa 4d f0 3e 3a d8 be a4 a1 bb d7 7e a7 08 3f
       -5.7762915773851504e-06 4.702430575581902e-05
000680 81 77 e6 ff 1b 6a f5 3e 97 b5 63 15 de 55 f2 3e
       2.04224488641251e-05 1.7486019111714176e-05
000690 cd 3c ff 79 0e 4f c0 3e cb e1 55 5e 2f 5e e4 be
       1.944162207202435e-06 -9.71217645927358e-06
0006a0 6c 8d 30 eb 06 e6 cd be 16 64 21 a5 f3 45 d0 be
       -3.564184078112887e-06 -3.87984489876819e-06
0006b0 ec 1e ff 39 2b c0 df 3e 70 ab 8e d6 77 42 fa 3e
       7.569947143744082e-06 2.504314526034383e-05
0006c0 da 50 82 fe 39 36 d1 3e 98 c2 3a 75 d5 fe 00 3f
       4.103618245338882e-06 3.241623803996069e-05
0006d0 20 ca 97 b7 91 8b f2 3e 4a 5a 41 98 25 c2 ef 3e
       1.768607351055652e-05 1.5143578601034845e-05
0006e0 59 d5 70 f4 c3 eb 01 bf 08 c0 df 30 7a ce e9 be
       -3.418151623472516e-05 -1.2305522911731939e-05
0006f0 cb f6 ae 18 52 b5 fb 3e cf 64 17 a4 21 d3 ed 3e
       2.6424678747130955e-05 1.4221540484737203e-05
000700 66 53 5e 3b 14 35 ee 3e 0f 88 97 de 10 9e e4 3e
       1.4403982145508396e-05 9.831163839405685e-06
000710 a9 93 fe 88 48 9e cb be 8c aa bf 8d d1 eb da 3e
       -3.292357241906818e-06 6.418506213616071e-06
000720 ac c4 09 fd f6 e8 e5 3e 27 a0 ba a4 94 51 c1 3e
       1.0447511074237276e-05 2.0645468675369204e-06
000730 fd ad eb b7 7f 43 c2 3e 8a 0d f3 e6 02 52 e3 3e
       2.177198836652562e-06 9.212664023989002e-06
000740 40 6b 27 27 fe 09 02 3f 9c a8 91 cb 8f 3b 12 3f
       3.4406727440225524e-05 6.95520892734246e-05
000750 64 46 dd f9 e3 d6 f3 3e 21 b2 54 d4 53 d1 0e bf
       1.8920341623490647e-05 -5.8780070086282084e-05
000760 89 67 9d 55 14 2f f1 be 51 29 af 2e 6b 9f ff be
       -1.6387847927879936e-05 -3.015778467466954e-05
000770 73 f4 52 23 b6 11 bc 3e 0a ab f1 04 09 49 ff 3e
       1.673053828184985e-06 2.9835981248653303e-05
000780 d6 08 3b c4 ce 73 f6 3e 36 51 88 7f 0e 24 f4 3e
       2.1412252194216056e-05 1.9207807755065527e-05
000790 89 2f 39 5f d0 37 de be 20 e0 75 a8 c6 72 f2 3e
       -7.2045381674482425e-06 1.759371164442036e-05
0007a0 10 d0 27 aa 79 54 9b be 2d 77 e4 0c bc 5d ea 3e
       -4.0724845909380616e-07 1.2572360358616478e-05
0007b0 c6 4d dd 99 57 61 e5 3e b1 b0 1a 84 4f 4c fb 3e
       1.0194894283144662e-05 2.60334857162126e-05
0007c0 e3 e0 01 ae 99 dd f6 3e 62 dd fa cd a5 d0 e0 3e
       2.1806360451099508e-05 8.018031109598398e-06
0007d0 8c a0 d6 c8 0a 3f f1 be 1d bd 06 22 9b ba f3 be
       -1.6447313603202204e-05 -1.88149734882656e-05
0007e0 b5 d4 60 27 e9 a4 ff be 49 29 95 9e 5e d2 f6 be
       -3.0178244252183825e-05 -2.1764522818026604e-05
0007f0 16 42 be 8b 9a 85 f6 3e 6e dc 66 49 9c 86 04 3f
       2.147854750905912e-05 3.914989899860768e-05

medians f4 [96]
000000 4c 24 c7 39 58 76 bf 39 51 d8 bd 39 63 8b bf 39
       0.0003798328 0.00036518532 0.00036210057 0.0003653421
000010 8b 23 c2 39 44 58 c8 39 1b 94 ce 39 99 f1 d2 39
       0.00037029045 0.00038212736 0.0003940173 0.00040234326
000020 1e 7b d9 39 5f db e1 39 e3 74 f1 39 58 81 fd 39
       0.00041481195 0.00043078788 0.0004605419 0.0004835229
000030 9b 14 04 3a 8a 6e 0c 3a c5 b6 14 3a 9d 14 18 3a
       0.0005038471 0.0005357048 0.0005672987 0.00058014115
000040 14 c3 23 3a 6e 17 2a 3a f7 2d 30 3a 40 1b 3d 3a
       0.00062470254 0.00064884766 0.00067207165 0.00072138384
000050 0b 10 49 3a 23 17 56 3a 51 6b 61 3a 60 1d 63 3a
       0.0007669932 0.00081669 0.000859906 0.000866374
000060 66 cf 6c 3a ca 32 80 3a 3b ed 83 3a a3 49 8d 3a
       0.00090335903 0.0009780761 0.0010065207 0.0010779392
000070 d6 b2 94 3a 4c 79 98 3a d7 fa a7 3a b8 bc af 3a
       0.0011344801 0.0011632829 0.0012815845 0.0013407683
000080 f3 58 b0 3a 8a 39 c4 3a 48 38 cf 3a 1d 7f da 3a
       0.0013454243 0.0014970761 0.001580962 0.0016669963
000090 db 9a d2 3a 99 8c e0 3a 35 2f f9 3a 99 49 0b 3b
       0.0016067879 0.0017131745 0.0019011261 0.0021253584
0000a0 a8 4e 0e 3b 6a 8d 15 3b 63 6a 1c 3b c2 d5 1d 3b
       0.0021714363 0.0022819885 0.0023867122 0.0024083708
0000b0 0b bd 1b 3b e9 7b 03 3b d4 58 16 3b 95 e5 26 3b
       0.0023763801 0.002006287 0.002294113 0.0025466431
0000c0 d7 66 46 3b 28 14 6c 3b dd 2d 8e 3b da ee 73 3b
       0.00302737 0.0036022756 0.0043389634 0.0037221224
0000d0 db c0 75 3b de a5 82 3b 60 f4 9c 3b d9 c2 9d 3b
       0.0037498984 0.003987058 0.004789874 0.0048144874
0000e0 07 ae 98 3b ef 99 af 3b 50 56 b4 3b c2 c9 a8 3b
       0.0046594176 0.0053589265 0.0055034533 0.0051510045
0000f0 26 f1 b3 3b a5 ee b3 3b 07 a9 d3 3b 49 6b ee 3b
       0.0054913936 0.005491095 0.0064593586 0.007275973
000100 87 e0 fd 3b 93 c5 05 3c 14 6e fd 3b 52 1f d7 3b
       0.007747713 0.008164781 0.0077340696 0.006565013
000110 19 3a 14 3c 9f 74 1b 3c 04 d3 01 3c 89 62 18 3c
       0.009047055 0.009488254 0.007923845 0.009300836
000120 3f b5 12 3c 29 dd 27 3c 70 dc 2d 3c 80 98 69 3c
       0.008954345 0.0102456 0.010611638 0.01425755
000130 e1 36 4f 3c 76 91 5d 3c 3d 21 93 3c 55 2c ac 3c
       0.0126473615 0.01352345 0.017960185 0.021017233
000140 1d a1 5e 3c ed be 65 3c f6 fd 72 3c 21 d6 7e 3c
       0.013588217 0.014022571 0.014831057 0.015553982
000150 25 fc a1 3c 2f 25 a7 3c 14 02 1a 3d d0 6c d1 3c
       0.019773552 0.020403473 0.037599638 0.025564581
000160 9f 82 e8 3c ae 3a ec 3c 61 d3 9e 3c 68 00 f4 3c
       0.028382597 0.028836574 0.019387903 0.02978535
000170 ec 8c 32 3d 51 88 18 3d c9 c1 1a 3d 5f 04 4b 3d
       0.043591425 0.037239376 0.037782464 0.049564715

threshold f8 []
000000 f6 3b 4c 5c b0 e9 11 3f
       6.83320896082e-05
