ParamsAlgoAP/BTC/params20.npz (npz, 15124 bytes, 3 tensors)

means f8 [96, 16]
0	0x3f1350e81334dfe1	7.368484948677658e-05
1	0x3ef5138d8d67abac	2.010000101819078e-05
2	0x3f171aa674f4aea7	8.813515636479451e-05
3	0x3edaacc14040561d	6.359773582450344e-06
4	0xbf169a36eed15776	-8.622131618215935e-05
5	0xbf0fd9689a9c9262	-6.074762798239233e-05
6	0x3ee5cd8d8d0e7cb0	1.0396452496950988e-05
7	0x3ec3c4ef75d3251c	2.356681689440059e-06
8	0x3f376743a652d61d	0.0003571071777729045
9	0x3f4983af36bf774c	0.0007786374603673068
10	0x3f43c5e55480f348	0.0006034250045626544
11	0xbefca0478f730fe4	-2.729996864726793e-05
12	0xbf417c3c612cdea8	-0.0005336088964673262
13	0xbf668652a1fa77db	-0.0027495969696493656
14	0x3f210549f32a6182	0.0001298573275405717
15	0x3f0dd9ce25ea25d8	5.693588604056458e-05
16	0x3eee384366b84cbb	1.4409913283086576e-05
17	0x3f0661479c79b4d6	4.268646040093422e-05
18	0x3eed3795454da025	1.393180915849896e-05
19	0x3eece727b79d398e	1.3782000440135092e-05
20	0xbed2f756e844e036	-4.521887266677228e-06
21	0xbee2c8fafff83a24	-8.957424142000638e-06
22	0xbf047a7f3e2cc990	-3.905964674401623e-05
23	0x3ee7e17d1ba9c220	1.1387260078183725e-05
24	0x3f25914a36616ac2	0.00016454726136568536
25	0x3f1eaa83b888f4f8	0.00011698178253368222
26	0xbee0362c2ac5026c	-7.730298727027736e-06
27	0xbf0dfac58b32dd43	-5.7181504780452165e-05
28	0xbf22689c6e47f876	-0.0001404467540310793
29	0xbf30bafbbe359552	-0.0002552857024141392
30	0x3ef85f11cb0a20dc	2.324234509612574e-05
31	0x3f133a082fbdccef	7.334399191254495e-05
32	0x3efb62a4f6d48fda	2.6116685536994737e-05
33	0x3ee735d6457dc509	1.106753386157174e-05
34	0x3ef1423148bf30c3	1.6459049717629898e-05
35	0xbef5fe584837cf33	-2.0974669053999e-05
36	0xbefa25ffef4918d0	-2.493709230779671e-05
37	0xbecb94d280154f17	-3.2879515862535276e-06
38	0xbec93297b096f83a	-3.0037912252803177e-06
39	0x3ed5c41e853e755d	5.189440418632477e-06
40	0x3f25b54febbfab3d	0.000165620809524947
41	0x3f07f05ec7b4d713	4.565991636200201e-05
42	0x3efa71bbafbbded7	2.5219221227750325e-05
43	0xbf0253ba81f5a65d	-3.495610166732715e-05
44	0xbf26e8e27395d3ca	-0.0001747871809062703
45	0xbf034eaf5b1fbbf9	-3.6825872839922566e-05
46	0xbeb59743dfa19992	-1.2869166981177555e-06
47	0x3f14334cdce0ffc3	7.705837853766357e-05
48	0x3ef7e7947ea0924b	2.2797212217667053e-05
49	0x3f01ea57c0c48a2e	3.417091656589644e-05
50	0xbed2ceeadc01aa45	-4.484241287720243e-06
51	0x3eea826e5e46baf2	1.2640713017512157e-05
52	0xbee1d3f26d14f42c	-8.501013697976156e-06
53	0xbef4b4497a120240	-1.974510781055567e-05
54	0xbed251586ef79f1a	-4.3672932714467755e-06
55	0x3ee7ee6ca334b96e	1.1411354626203389e-05
56	0x3f1c85e87e94e6d7	0.00010880691083494806
57	0x3f0873e9228bf3ce	4.6639969076146476e-05
58	0x3f0330e838708381	3.660401039718483e-05
59	0xbf0afb6056325878	-5.14639639501027e-05
60	0xbf1ffec39ae83da6	-0.00012205189589330773
61	0xbf2389eba0808001	-0.0001490688448493316
62	0xbede760dd7e5903d	-7.262503798653088e-06
63	0x3f1b138ee83764fb	0.00010328826652230068
64	0x3efc7c33b11b673f	2.716556907143082e-05
65	0x3ef9a18de4b5b2df	2.4443694468900538e-05
66	0x3ef055e320e2295c	1.557874389183346e-05
67	0xbef181e370a3b53e	-1.6696335514978062e-05
68	0x3eb3534df6de7d29	1.1518841023029484e-06
69	0xbef4241a37814b75	-1.9207978283762806e-05
70	0x3ec128214bf1bc8f	2.045244940122497e-06
71	0x3efbbbc4a2d327cc	2.6448697259685673e-05
72	0x3f1c83783d472d28	0.0001087705744062152
73	0x3f0af5cf3bc1d337	5.1422487985874924e-05
74	0xbefdd8aa1a3877cd	-2.8463693196305145e-05
75	0xbf121fe562388b60	-6.91398386654502e-05
76	0xbf190a667380c979	-9.552240669633516e-05
77	0xbf02851b3694b9fd	-3.532399461857528e-05
78	0x3ee5e7fddbbe41b9	1.044569841449147e-05
79	0x3f15588822a9005f	8.142786888587623e-05
80	0x3ed81a6be23a2166	5.746652763989916e-06
81	0xbee173e3416cb27f	-8.322089383472037e-06
82	0x3ed85ce266159bfa	5.808551209219264e-06
83	0xbee780c27f97d281	-1.1207088379963346e-05
84	0xbee19f3488e3ffe4	-8.402774508642305e-06
85	0x3ee3b055183600ae	9.388350696637754e-06
86	0x3ef56c4ca6005c97	2.0430607378410332e-05
87	0x3eef4ec189f3fd22	1.4928646406618817e-05
88	0x3f1598526b51db52	8.237841650947139e-05
89	0x3f1730b0d98f1e7c	8.846358686220331e-05
90	0xbeed04de668b0c15	-1.38373463455296e-05
91	0xbf14202c3ddc4b5a	-7.67733576732382e-05
92	0xbf1670f4e5ae5280	-8.560652479012477e-05
93	0x3edb05f2c63e6dbd	6.442841456701302e-06
94	0x3f090b08e3829a58	4.776593090243382e-05
95	0x3f10faaae23a1665	6.47703932888599e-05
96	0xbea68a2a4e928378	-6.717356459026266e-07
97	0x3ef5e49b5d26d6b8	2.087878767450285e-05
98	0xbe893ec7ac51959e	-1.8809165261699034e-07
99	0x3efbaa27cddff93a	2.6383085121034165e-05
100	0xbf0087e34ea94557	-3.15300220178431e-05
101	0xbef67aaf56cf3a0c	-2.143787189706242e-05
102	0x3ee7cff8b51bebad	1.1354631769480218e-05
103	0x3eebb8e37130998d	1.3218984838370119e-05
104	0x3f1184006de533fb	6.681683178051672e-05
105	0xbef385284a5e9560	-1.861586192543807e-05
106	0x3f05bd3b60ed7d2d	4.146420916728076e-05
107	0xbf0086ff5e3a4e21	-3.152338811420971e-05
108	0xbf11230d2c80b32b	-6.537216097575171e-05
109	0xbee3245e74cdd070	-9.127648491015684e-06
110	0x3ef78fd8c5cd9e7e	2.247038024752326e-05
111	0x3f117dbe11d835bf	6.6723562177815e-05
112	0x3ef0fdeef82b2b84	1.6204764970588755e-05
113	0x3ef624f44d7af6bf	2.1118500483244563e-05
114	0x3eea1462c5aaf315	1.2435737678168028e-05
115	0x3ee914e8fc1b992b	1.195987704556404e-05
116	0x3ecf6dfe9fee7396	3.7467082160805717e-06
117	0xbedbbe33a103f9b3	-6.614440750006578e-06
118	0x3ed144abff57aaf4	4.11707150281092e-06
119	0x3eeea1fcb64adffd	1.4606839337502614e-05
120	0x3f0e9fd799284bdb	5.8411376034815414e-05
121	0x3f149f15fb49d1ef	7.866450943955887e-05
122	0x3ed11bfc46692a88	4.079179325498291e-06
123	0xbf0433c35c162a89	-3.8532637982665e-05
124	0xbf0ed99ee26b72f4	-5.884185912006192e-05
125	0xbf025d00ad3802af	-3.502519907883549e-05
126	0xbf06c1c649187cd5	-4.3405402845525576e-05
127	0x3f0921ff9d5e6221	4.793702434752559e-05
128	0x3f0320f0b7f3586c	3.648504843460705e-05
129	0x3ed03f878507caf1	3.873863605440994e-06
130	0xbee1d3d71cdc4026	-8.500814967088497e-06
131	0xbef722acb862854e	-2.20636825579758e-05
132	0xbf02bee4388d24c5	-3.575452780652794e-05
133	0x3e9996279e1079cf	3.812691869459061e-07
134	0x3efa99235c814923	2.536601621756189e-05
135	0x3efcc9bf011c074c	2.745444368824146e-05
136	0x3f16488d4f124e20	8.500444870867445e-05
137	0x3f10cb952a84627c	6.406877458110279e-05
138	0x3efc1053bd397edf	2.6763704069287095e-05
139	0xbf0d3161b145b174	-5.5681032025886335e-05
140	0xbf0ea58ae7cd40f2	-5.8453847464280925e-05
141	0xbf00ffa28ff50c32	-3.242220736379037e-05
142	0xbed5d8906b499e44	-5.208481230846064e-06
143	0x3f0ae60fbb8bfee5	5.130515586948356e-05
144	0x3ef5a26a58b904eb	2.0632205219199664e-05
145	0x3efab43b1ccd93e4	2.5466944680547265e-05
146	0xbeb0c42f32b91554	-9.993520490176227e-07
147	0x3eb3f94972d037dc	1.1905298820144322e-06
148	0xbefb3ff4ae59ca50	-2.5987460409779902e-05
149	0x3ea594e7305e9848	6.431833703315546e-07
150	0x3eddbd9a8a11ee7d	7.090720971377284e-06
151	0x3f01d280240925c7	3.399327807025346e-05
152	0x3f126d895227b07e	7.029677048081721e-05
153	0x3f08bc40fd84a4b7	4.7178967806546365e-05
154	0x3ef15c0893b5348e	1.6555314897904803e-05
155	0xbf0caa50cfd6b373	-5.4674712355185384e-05
156	0xbf1215e9ac9e46db	-6.899107680016383e-05
157	0xbef14161db955be0	-1.645603126595649e-05
158	0x3ed08a1c09df8758	3.943321784634562e-06
159	0x3f08d0fdaac07a63	4.733347063300556e-05
160	0x3ef09f753d4614d1	1.585281627704689e-05
161	0x3ef11fd7673dce0b	1.6331081908528246e-05
162	0x3ee4b26cc5677015	9.869085414608605e-06
163	0xbefac9bdcad2f5ab	-2.5547077417744566e-05
164	0x3eef530101f06c76	1.4936558782754758e-05
165	0xbec1324fa301ac29	-2.049985845122629e-06
166	0x3f00ae21eb0c1c32	3.1814966297054664e-05
167	0x3ef79f1bef74da6b	2.252723694803409e-05
168	0x3f0c7d8db7d29e9a	5.4341208831685045e-05
169	0x3f094e1bdfb04182	4.826567234073304e-05
170	0xbf05c741643e5388	-4.1538889973192236e-05
171	0xbf0fbf80662a27ef	-6.055460541627688e-05
172	0xbf0b797c4d1001e5	-5.2403550974137137e-05
173	0xbf063c8327f4205f	-4.2412521901680855e-05
174	0x3f0474b0c0563057	3.901638414580192e-05
175	0x3f11a9240e8de5cc	6.737024854244002e-05
176	0x3eee9ba124d748fb	1.4594997220483417e-05
177	0x3ec30344f4305f09	2.2664989116730547e-06
178	0x3ebc3bfe977ebf64	1.6828986115595082e-06
179	0xbee332e5f47c21ee	-9.154711406293152e-06
180	0xbed39cfc855736ed	-4.676157990114147e-06
181	0xbec2320062444614	-2.1690509745063075e-06
182	0x3ee5ac146c3b6e50	1.0334103883228408e-05
183	0x3eb9278020bd806b	1.4993130461257946e-06
184	0x3f00b0ba074ff9ff	3.183429445384813e-05
185	0x3f100c166d66d326	6.121527562792366e-05
186	0xbef70e1b3280e279	-2.198705911402247e-05
187	0xbf08d3d411dd5655	-4.7354611736477474e-05
188	0xbf013fef3e6ecc14	-3.290127624868563e-05
189	0x3efb976cd053696e	2.6313308826833434e-05
190	0x3ef0c441d6b6226d	1.5989904040421993e-05
191	0x3f0d13db5f0975d2	5.546105592622485e-05
192	0x3eef315b920b9326	1.487388777960672e-05
193	0x3ef68f737d1b5936	2.1515232055368756e-05
194	0x3ef9cde494aa2e3e	2.4608868708626693e-05
195	0x3eb79ccb2202ad8f	1.4074131584978772e-06
196	0xbee838e7a84cc142	-1.1550085454809501e-05
197	0xbef474dafdf02f87	-1.9508806754983266e-05
198	0x3ef4e6b5d268aa3e	1.9932948953785836e-05
199	0x3ef25fb7634594a6	1.752270891710165e-05
200	0x3f10a3dc90d4189b	6.347688414018659e-05
201	0x3ee109146b67734a	8.123144067556692e-06
202	0xbf0a0f38629032f4	-4.970446418193177e-05
203	0xbefe942188b591ba	-2.9162060440583836e-05
204	0xbeeef01503535037	-1.4752302471533845e-05
205	0xbee75a0567497004	-1.113493201748001e-05
206	0xbed81d855e332383	-5.749539442941804e-06
207	0x3f060ba7bd70dbc0	4.204850818505896e-05
208	0x3ef414feb0112384	1.9151698328809526e-05
209	0x3eedbf045d7b8784	1.4184074572157685e-05
210	0x3ec570a4397d7f6e	2.555847867499677e-06
211	0xbee6913b71240383	-1.0760933524257967e-05
212	0xbec4f209f5dda38a	-2.4968939404301456e-06
213	0xbed0611b6d744aab	-3.9051353362291414e-06
214	0x3ee1585d3adf9161	8.270822799923737e-06
215	0x3efb25c3bc498745	2.5889890610370702e-05
216	0x3ead4c12bc6d450e	8.73123433867624e-07
217	0x3f029aebdc011d8c	3.5486529214308246e-05
218	0x3ef3e6897f6931f9	1.89786296352235e-05
219	0x3ef1c13bf93f068d	1.693231713751366e-05
220	0xbf02dd916ae83fac	-3.598308591190534e-05
221	0xbeed89e9a1e032e3	-1.4085159872245653e-05
222	0x3ef775fd417ccc88	2.237405359934973e-05
223	0x3ef19f79c9fac042	1.6806556799309426e-05
224	0x3eef0e7a727ee3ae	1.4808919857377464e-05
225	0x3ee69da89bfbb3ef	1.0784079563086786e-05
226	0xbec39113035e97fe	-2.3325319728649185e-06
227	0x3ed8e5ed171166a0	5.936181296817327e-06
228	0x3ee3e779b04bde1c	9.4910624368469e-06
229	0x3ea66a9ae24279e2	6.680615496529048e-07
230	0x3ec013f0d992f12c	1.9166343006843966e-06
231	0x3ede25a2677b1412	7.187607131424656e-06
232	0x3f00643cd86ad61d	3.126440701832162e-05
233	0x3f11d66de2fcc9d1	6.804509825711977e-05
234	0x3ef44287996ef8f3	1.9321328718063237e-05
235	0xbf0d8f0580966171	-5.6378703514772535e-05
236	0xbee611271e1c397e	-1.052236706613747e-05
237	0xbf014e70341d6f7b	-3.300933759817125e-05
238	0xbec7c0d212d310d2	-2.831602748361742e-06
239	0x3efe47a3205a0fb1	2.8877098904547548e-05
240	0x3ef7ac812a879464	2.257713882327198e-05
241	0x3ef4761cf4e9fd3d	1.9513491958720144e-05
242	0xbedf7bfb5e351518	-7.50644310027373e-06
243	0x3ef3867125d3e1ac	1.86206474283871e-05
244	0x3e8d806407017133	2.1980349940415135e-07
245	0x3eecf4874ec5412c	1.3806910339170761e-05
246	0x3ee8289fa152098f	1.1519759065108086e-05
247	0x3efb6116c3b67445	2.6110890969034223e-05
248	0x3ef1726457d453f0	1.6638606656977446e-05
249	0x3ee857eaf4cda4e0	1.1607851456667988e-05
250	0xbed8d28b4930763d	-5.9181303582435045e-06
251	0xbef9cdb2ff0cdc49	-2.4608147160179003e-05
252	0xbf019fa860a76fdc	-3.3614469504533484e-05
253	0xbefa4cd9362e322c	-2.508181513465235e-05
254	0x3ee96ca1bff2291b	1.2123271515802677e-05
255	0x3f06cd55d2e68f62	4.3491536746458376e-05

medians f4 [96]
0	0x39c806a7	0.0003815193
1	0x39c086d4	0.00036721549
2	0x39bebd74	0.00036380778
3	0x39c0676f	0.00036698158
4	0x39c3215f	0.00037218162
5	0x39c96b53	0.0003841767
6	0x39cf94b3	0.00039592906
7	0x39d3fc3c	0.00040432985
8	0x39da83fc	0.00041678536
9	0x39e30111	0.00043297608
10	0x39f28dd3	0.00046263504
11	0x39feadfd	0.00048576287
12	0x3a04b5ce	0.00050624914
13	0x3a0d49d7	0.0005389726
14	0x3a154751	0.0005694526
15	0x3a18bd1d	0.000582652
16	0x3a24a58b	0.00062807713
17	0x3a2ad069	0.0006516041
18	0x3a311467	0.00067550543
19	0x3a3e14d5	0.0007251029
20	0x3a4a2f3b	0.00077127264
21	0x3a573e08	0.00082108425
22	0x3a628cbc	0.0008642187
23	0x3a646847	0.00087130483
24	0x3a6e05ea	0.0009079861
25	0x3a80c5f1	0.0009824616
26	0x3a84a420	0.0010119714
27	0x3a8e15f3	0.0010840282
28	0x3a9566fa	0.0011398487
29	0x3a995e25	0.0011701031
30	0x3aa8acfa	0.0012868934
31	0x3ab09c13	0.0013474248
32	0x3ab11c3f	0.0013512446
33	0x3ac51b0f	0.0015037971
34	0x3ad06c4b	0.0015901414
35	0x3adbabaf	0.001675954
36	0x3ad397f6	0.001614331
37	0x3ae19363	0.0017210062
38	0x3afa822a	0.0019112278
39	0x3b0bf67f	0.002135664
40	0x3b0ee065	0.002180123
41	0x3b15f388	0.0022880752
42	0x3b1d3adb	0.002399138
43	0x3b1ea953	0.0024209812
44	0x3b1c4557	0.002384504
45	0x3b042c8b	0.0020168151
46	0x3b172876	0.0023064888
47	0x3b27c4ae	0.0025599408
48	0x3b46f009	0.0030355474
49	0x3b6d4781	0.003620595
50	0x3b8e4a38	0.0043423437
51	0x3b749445	0.003731982
52	0x3b7691fe	0.003762364
53	0x3b833c0f	0.0040049623
54	0x3b9dc3a6	0.004814583
55	0x3b9e4ab7	0.004830684
56	0x3b98f016	0.0046672923
57	0x3bb08e64	0.005388068
58	0x3bb52894	0.005528519
59	0x3ba98ad2	0.0051740194
60	0x3bb4c894	0.005517075
61	0x3bb49256	0.0055106087
62	0x3bd3c2d3	0.006462434
63	0x3bef82a8	0.0073092766
64	0x3bff3766	0.0077885864
65	0x3c069aad	0.0082155885
66	0x3bfe8555	0.0077673593
67	0x3bd7cbe3	0.0065855845
68	0x3c1452d9	0.009052956
69	0x3c1b08f5	0.009462585
70	0x3c02f9bb	0.007994111
71	0x3c18d83a	0.009328896
72	0x3c134f11	0.008991019
73	0x3c287980	0.010282874
74	0x3c2e6018	0.010643028
75	0x3c6a5ca5	0.014304315
76	0x3c5040da	0.012710774
77	0x3c5d2969	0.0134986425
78	0x3c92b805	0.017910013
79	0x3cabf17d	0.020989174
80	0x3c5dff5c	0.013549652
81	0x3c64bd1a	0.013961101
82	0x3c71b1b3	0.014751839
83	0x3c7e7da5	0.015532886
84	0x3ca17ef5	0.019713858
85	0x3ca6a29e	0.020341214
86	0x3d19b037	0.037521567
87	0x3cd05e3e	0.025435563
88	0x3ce64a29	0.028111534
89	0x3ceb1075	0.02869437
90	0x3c9ee718	0.019397303
91	0x3cf39d30	0.029738039
92	0x3d319647	0.043356206
93	0x3d17848a	0.036991633
94	0x3d1a2feb	0.037643354
95	0x3d4abc53	0.049496006

threshold f8 []
0	0x3f14f7eb99215d06	7.99882457455e-05
