ParamsAlgoAP/BTC/params9.npz (npz, 13680 bytes, 3 tensors)

threshold f8 []
3.60784555588e-06
00000000: 5e92 e811 ca43 ce3e

medians f4 [96]
0.0002458286 0.000252207 0.00025347032 0.00025869388 0.0002635294 0.00027258825 0.00028173305 0.00029283197
0.00030444557 0.00031921075 0.0003396487 0.00035500602 0.00036929248 0.00038845857 0.0004115896 0.00042704685
0.00046151568 0.00047610333 0.00049534795 0.00052314973 0.0005611495 0.00059334445 0.00061832776 0.0006494597
0.00066963467 0.0007317948 0.0007411497 0.00080374116 0.0008298044 0.0008871408 0.0009468759 0.0009528037
0.0009695396 0.0010720651 0.0011485718 0.0012340205 0.0012525291 0.0012544391 0.0013612704 0.0015047397
0.0015743837 0.0017327728 0.0017807564 0.0019156793 0.0018413998 0.0015724311 0.0016726984 0.0017762751
0.0021323161 0.0023797331 0.0026427729 0.0026148425 0.0028118994 0.0031139443 0.0033980953 0.0037752024
0.0038967475 0.0041608266 0.0043354337 0.003965129 0.0041368124 0.004140313 0.004905074 0.0057628267
0.006057994 0.0067230156 0.0064457506 0.00571644 0.0068545085 0.0077949185 0.006125124 0.0070639583
0.007576944 0.009286413 0.0094432775 0.0109443 0.010088736 0.012506593 0.012811322 0.016236592
0.011578086 0.011164519 0.010192722 0.011664652 0.015812265 0.019592334 0.02324604 0.0149503015
0.01948175 0.018591257 0.02014669 0.029410558 0.025310926 0.027496126 0.02795561 0.02353852
00000000: 8ee2 8039 a73a 8439 36e4 8439 4ea1 8739
00000010: 512a 8a39 2dea 8e39 92b5 9339 3e87 9939
00000020: fe9d 9f39 be5b a739 e012 b239 1a20 ba39
00000030: 999d c139 07aa cb39 9fca d739 42e5 df39
00000040: 96f7 f139 829d f939 3dda 013a fc23 093a
00000050: 1b1a 133a ac8a 1b3a 4617 223a 8140 2a3a
00000060: 6c8a 2f3a ebd5 3f3a b749 423a 28b2 523a
00000070: 3b87 593a 038f 683a c437 783a 93c5 793a
00000080: b328 7e3a 8984 8c3a ad8b 963a dbbe a13a
00000090: e72b a43a fe6b a43a a86c b23a b03a c53a
000000a0: 8d5b ce3a 351e e33a 4568 e93a 8817 fb3a
000000b0: 205b f13a 081a ce3a 723e db3a e7d1 e83a
000000c0: 54be 0b3b 4cf5 1b3b 5f32 2d3b c75d 2b3b
000000d0: d847 383b 5113 4c3b 94b2 5e3b 6369 773b
000000e0: 9360 7f3b 8b57 883b 4110 8e3b eaed 813b
000000f0: 198e 873b 76ab 873b beba a03b 18d6 bc3b
00000100: 2382 c63b be4c dc3b e036 d33b f950 bb3b
00000110: c99b e03b 846c ff3b 44b5 c83b c778 e73b
00000120: 0348 f83b 0a26 183c fab7 1a3c b94f 333c
00000130: 3a4b 253c 74e8 4c3c 94e6 513c 9a02 853c
00000140: 03b2 3d3c 63eb 363c 60ff 263c 191d 3f3c
00000150: b988 813c 1a80 a03c 7b6e be3c 1cf2 743c
00000160: 3198 9f3c b14c 983c ac0a a53c 69ee f03c
00000170: dc58 cf3c 8e3f e13c 2a03 e53c dbd3 c03c

means f8 [96, 16]
6.225968035129589e-05 1.8798405796271977e-05 5.7950468406041235e-05 1.303210872026238e-06 -4.6650040397191454e-05 -3.7094870256003586e-05 -6.4734769912504965e-06 4.35009148979662e-06
0.00023374202531056086 0.00043066674596977896 0.0006516159411443287 -2.021663929003318e-05 -0.0004338094704687534 -0.0016094388571625564 0.00042005351625934206 4.3911039396458155e-05
3.9730870188021904e-06 2.7039111818809166e-05 1.1000230288256676e-05 2.459025315714859e-06 1.6051200389492315e-05 -1.5831901354512744e-05 -3.629430165241408e-05 1.740795866821725e-05
0.00012462407147241885 0.00014276755816807423 -9.628684654941651e-07 -4.0915392542306335e-05 -0.00012687646761254466 -0.00016751440038437136 -3.1419709274591074e-06 5.564361325218896e-05
5.553471655540941e-06 9.4904111074771e-06 1.4372798379409725e-05 -9.227038591011158e-06 -3.278210570127239e-05 -2.6708067236334e-06 -5.80270988443814e-06 1.3322854698801417e-05
0.00013928997987765058 4.0751489228213344e-05 2.496192230044772e-05 -3.829684812939836e-05 -0.00014091396310764406 -2.9396089747915315e-05 -1.9790906531935374e-06 5.6056669273899816e-05
2.9998843299617274e-05 4.154659857217413e-05 -3.699684209867087e-06 3.5829945479080524e-06 -2.912944711963013e-06 -3.615466300587717e-05 3.3537115604081083e-06 1.5191697155430553e-05
8.325743272653641e-05 3.493709415329784e-05 1.9226553496213406e-05 -3.75991792503934e-05 -9.703715130762959e-05 -0.00010209084575799537 -1.3702757334590614e-05 7.765150334697851e-05
2.5534440578204534e-05 1.1910178874245019e-05 2.784703125296767e-06 -2.275353783801055e-07 1.9335079157294143e-05 -1.7994788969016334e-05 -1.1493061892828495e-05 2.9147480071455036e-05
9.38136453145402e-05 5.311127510506097e-05 -6.0332649838404465e-06 -7.187389062755481e-05 -8.130906280264273e-05 -3.576786566931982e-05 7.523563988020401e-06 6.362484572960828e-05
6.02959332124946e-06 -1.66115873527162e-07 -3.926923050284763e-06 -8.129314712298606e-06 -2.3359653326746683e-06 1.4433575930882895e-05 2.0087057502876002e-05 2.3026167966576404e-05
5.519611211548875e-05 5.3448631770944825e-05 2.3729703050783825e-06 -6.97185210223064e-05 -7.567830896456737e-05 9.007342676217353e-06 3.675967400458906e-05 5.120987221852344e-05
1.3761514425847104e-05 6.078946396377984e-06 -1.482096493513368e-06 2.5647155372502184e-05 -1.3988135398634786e-05 -7.052258051086279e-06 2.9420006429601436e-06 5.158810154525921e-06
4.531319122153638e-05 -2.1967193881622937e-06 2.077492529096423e-05 -2.2118878711554915e-05 -6.142399853564386e-05 -3.364630536630295e-05 2.1536412690781578e-05 5.658922019315714e-05
7.796270315247475e-06 2.105236793596435e-05 1.7501796050234263e-05 1.1073561660798727e-05 4.801356370490799e-06 6.053378085121515e-06 8.333078718583745e-06 8.089960239705074e-06
4.245887089615991e-05 6.322283189753109e-05 2.851481928133353e-06 -2.3081656309552977e-05 -5.6796416393989347e-05 -4.003577720499426e-05 -2.8333408111076998e-05 4.1765980792943454e-05
2.4471447790264917e-05 3.6486217431511622e-06 -1.5953414078007222e-05 -1.2992853550669082e-05 -2.742223014343234e-05 1.0932054692183353e-05 2.2786475643599134e-05 2.5433391589920987e-05
8.604602269465987e-05 4.343638447563665e-05 2.8099881868822023e-05 -5.740955165703209e-05 -6.086411560637598e-05 -3.4620354549717294e-05 -8.097193787853025e-06 4.0459316443960655e-05
9.406643782402946e-06 2.419762540638947e-05 -1.6593407373997333e-06 9.293784158781646e-06 -2.4076215681445053e-05 -2.005978587670578e-06 1.1197618120825884e-05 1.2370125163629256e-05
7.426365975270598e-05 3.580401130751491e-05 2.083218683628221e-05 -5.5470903346127525e-05 -6.748616189675818e-05 -1.9579846434568998e-05 -8.15363006125899e-06 5.39595314188257e-05
1.0408445920187534e-05 7.188656980502499e-06 1.8150820969124253e-05 -3.097277851325304e-05 1.3239454316055635e-05 -1.8058478149767395e-05 4.059383220622773e-05 2.478285608315271e-05
4.747865350606652e-05 4.457494376389446e-05 -3.3361008365721217e-05 -5.256321919870993e-05 -4.719226823328177e-05 -3.833771321654452e-05 3.3565004456237525e-05 6.0292167503889236e-05
2.2775614240197647e-05 5.685552811026696e-06 -4.484861858131208e-06 1.2848566082569529e-05 -4.373323308277663e-06 -1.1710935000137768e-06 6.855333846929448e-06 -1.0107342469473012e-06
2.2833637805371373e-05 4.476962078963691e-05 -2.2178569972996416e-05 -5.629751099104332e-05 -3.253588786533419e-05 1.9207261847824657e-05 1.6439575638882413e-05 4.447955938431401e-05
1.929010957311221e-05 2.0303852155301457e-05 6.477353775771521e-06 -8.798951283765624e-07 -1.7252894072348637e-05 -2.2844366104684187e-05 1.3042203101807555e-05 2.083149190700057e-05
5.219928860363835e-05 1.051275371717427e-05 -2.6056014098976936e-05 -2.509277597652951e-05 -1.8886453990294738e-05 -1.8043116031058473e-05 6.329494037021457e-06 3.471742235425948e-05
2.5220255666620178e-05 1.2852932544124e-05 1.0942164411218914e-05 -1.5021257771532371e-05 -2.672710085763717e-06 -1.0193842611286806e-05 -2.994851105841744e-06 2.9427225318146246e-05
5.3142153005926096e-06 2.833921065559562e-05 2.4473907011326184e-06 7.083245669184436e-06 -3.1622763209186845e-05 -7.898836280224818e-06 1.9324212498667286e-05 1.2204226233169233e-05
9.905405439082282e-06 1.6834364001759342e-06 -2.708807776668348e-06 -6.0018654106041435e-06 4.404552692919152e-06 -9.224382432192215e-06 -4.488110639308206e-07 1.3305555739640308e-05
2.8481926580399874e-05 5.504292050297083e-05 1.2757743674395943e-05 -4.290479761186362e-05 -1.0614691913069823e-05 -1.9159468579274453e-05 -3.3041514688908007e-07 2.043248104330983e-05
2.3793725177052316e-05 1.0074693967744945e-05 7.734099673837173e-06 3.199972832752693e-05 4.0950502724934475e-06 4.423490907221575e-06 2.8866841809697326e-05 1.8154081589233527e-05
2.0356484216687074e-05 1.2961742265331863e-05 -3.8129477320992404e-05 -2.3130307831590053e-05 -3.031805909481563e-05 -1.008655147751324e-05 7.97873009554127e-06 3.365567301370318e-05
00000000: 5a93 f329 2d52 103f f63f 1b9c 28b6 f33e
00000010: 4eb2 c7ee fa61 0e3f dd47 da81 3fdd b53e
00000020: 15ce d22e 4375 08bf b725 6b09 ca72 03bf
00000030: 4f59 56ce d726 dbbe 0ae7 310b e03e d23e
00000040: f12e 75b5 14a3 2e3f c5e5 e396 6339 3c3f
00000050: 31f2 1094 265a 453f f446 95df dc32 f5be
00000060: ec0d 057d 1d6e 3cbf 8b43 69d0 795e 5abf
00000070: d553 6a1d 5487 3b3f 89ab 3bd3 a305 073f
00000080: 6a8d 05d8 11aa d03e 3e9e 979d 415a fc3e
00000090: 655d 8623 b411 e73e 6b62 bc76 b7a0 c43e
000000a0: 7df7 7c17 b6d4 f03e 03c0 10fa d799 f0be
000000b0: 02be 82b5 5607 03bf d676 8bcf e940 f23e
000000c0: 8c92 5e9f b055 203f b6ca 8cfc 7bb6 223f
000000d0: 4d80 e612 7d27 b0be cb9f d72e 9273 05bf
000000e0: 1cbe dc8e 44a1 20bf e7c7 15be d9f4 25bf
000000f0: ffe8 d0c8 545b cabe 980d 42fe 5b2c 0d3f
00000100: f506 3aaa fe4a d73e 1074 ae2b 20e7 e33e
00000110: d38f 235e 5624 ee3e 0d6c 1087 ba59 e3be
00000120: d555 3693 f02f 01bf 06ac 2a86 8367 c6be
00000130: c62d 65bf 9c56 d8be 1011 0235 a7f0 eb3e
00000140: cb2d 04d1 cb41 223f b97c 0b82 925d 053f
00000150: 64bf 223d aa2c fa3e ef82 9aae 1d14 04bf
00000160: 57dc e7b9 4978 22bf 6fdc d2e7 f3d2 febe
00000170: ed09 c297 109a c0be 7ec8 727d cc63 0d3f
00000180: c7b3 71d0 c074 ff3e d713 cc41 4ac8 053f
00000190: 3f91 67e7 0209 cfbe 40a2 7615 6c0e ce3e
000001a0: a5c7 7a4a 806f c8be b57c fcc2 98f4 02bf
000001b0: be18 ae6d 0a22 cc3e 1aa5 60f5 fadb ef3e
000001c0: 6dc3 86cd 4fd3 153f 9c19 196a 2d51 023f
000001d0: 652a 19b2 1629 f43e 0dc1 3ef6 79b6 03bf
000001e0: a588 c190 0d70 19bf 6469 0060 33c3 1abf
000001f0: 7005 b4a0 9cbc ecbe 858d 60ab 1a5b 143f
00000200: b31d 3165 59c6 fa3e 80ee 2785 3afa e83e
00000210: 4d64 abbb 1a5c c73e c6a3 a45a 0e8a 8ebe
00000220: 0df8 b785 3846 f43e 0179 5f7b 70de f2be
00000230: e4c6 1366 4a1a e8be 0798 2494 3790 fe3e
00000240: 3135 7827 ba97 183f 8929 5a84 79d8 0b3f
00000250: 8734 3440 2b4e d9be 1dfb e909 60d7 12bf
00000260: def4 fa0f 8f50 15bf e617 a281 aec0 02bf
00000270: 7cc9 9385 5d8e df3e a0d7 c786 caad 103f
00000280: 4b19 ebfd 394a d93e 1702 0fad b24b 86be
00000290: 79e6 8763 8078 d0be c62b aa81 640c e1be
000002a0: b345 ce85 7298 c3be 5ce5 1f92 f744 ee3e
000002b0: 0eec ac14 1410 f53e 400b c236 0a25 f83e
000002c0: c1ce a1f8 4bf0 0c3f 848b f700 c105 0c3f
000002d0: b3b2 ad38 eae7 c33e 6538 2412 bb46 12bf
000002e0: b636 b572 afd6 13bf f36b 40c0 c7e3 e23e
000002f0: 02aa 02c8 cc45 033f 3584 b0cf 45d9 0a3f
00000300: f298 1024 28dc ec3e e721 d60f 387f d93e
00000310: 6e9f fe53 8edd b8be ccb6 d218 9be4 fa3e
00000320: a1cc b1b0 d255 edbe 93f8 abee 4d94 ddbe
00000330: 5cdf 3af5 e5ad c83e 6c64 06f0 3aa3 d53e
00000340: bf23 1e65 d5c1 073f d5b8 4f41 6b6d c2be
00000350: 5109 c7fe b9c8 f53e 4036 63c5 7d31 f7be
00000360: d22e 7542 181a 10bf b709 db3f eea3 01bf
00000370: e419 c902 2395 f63e 738b dfcc 46ab 0d3f
00000380: a241 ad3b 9759 e03e f6ac 67b5 3313 f63e
00000390: 4226 3a44 1a5a f23e 8779 d2b9 1239 e73e
000003a0: b00f 24ca 6a23 d43e a5f1 e1e5 c363 d93e
000003b0: bcb9 479e c979 e13e aff4 41ab 43f7 e03e
000003c0: 4642 05b2 bb42 063f d3c1 3ffb cf92 103f
000003d0: e8f5 a7c4 82eb c73e f1cb 0258 ef33 f8be
000003e0: 98f9 ed01 16c7 0dbf 3ff3 82d4 82fd 04bf
000003f0: bc2e c3fa b0b5 fdbe 85ee 372c bce5 053f
00000400: 2174 4d16 01a9 f93e c2f8 1604 5b9b ce3e
00000410: 2400 8144 76ba f0be a08b d231 7c3f ebbe
00000420: 3fa1 6f4e 19c1 fcbe bf38 fc27 1aed e63e
00000430: 9699 d1ae b2e4 f73e d522 975c 39ab fa3e
00000440: 8a18 e869 738e 163f 4066 65ce eec5 063f
00000450: f294 a92d 0177 fd3e f90e bd2c 6119 0ebf
00000460: 098e 9616 0be9 0fbf 48c5 1453 aa26 02bf
00000470: 7371 1bd7 25fb e0be d557 0e87 5b36 053f
00000480: 4b79 f246 27ba e33e 6a77 fb27 805f f93e
00000490: 5e25 6a6f d0d6 bbbe a1b3 f4f7 8f7d e33e
000004a0: 9872 83f1 e83e f9be 3f92 1f64 ced3 c0be
000004b0: f2c6 78ea ac7b e73e ece4 8a0e 29f1 e93e
000004c0: 2e5d adf5 bf77 133f 5472 0776 88c5 023f
000004d0: 7031 89fa 18d8 f53e 2ac3 dbb9 2d15 0dbf
000004e0: edb9 e06e ebb0 11bf 4cb2 32cd ec87 f4be
000004f0: aa34 f361 7219 e1be 7b74 cb61 534a 0c3f
00000500: 3853 1fea fdd3 e53e d1bd 0afc c226 de3e
00000510: 3e04 59eb 5208 f33e 2875 f590 183d 00bf
00000520: f4c0 e8be e0c3 eb3e b22b 4a2b 89ef f2be
00000530: fac0 3674 6948 053f 5f43 ede6 98fc f93e
00000540: aefc ce1c 7ae4 083f 6591 ce67 bf5e 073f
00000550: 7548 e684 a37d 01bf 145a 9e75 ea8e 0bbf
00000560: 9016 4ffd 09be 08bf 2822 b6cb 9919 04bf
00000570: 72e6 7cc5 0499 013f 03f0 df19 479c 0f3f
00000580: cd49 fd4a c8e1 f73e 598a 44db d0d8 d73e
00000590: f859 c470 95cf d2be 2069 db79 05f2 ea3e
000005a0: b51e 16f5 d157 d2be ea72 a4eb cea5 b3be
000005b0: 9320 bad1 dbc0 dc3e 6ac2 9e0e 12f5 b0be
000005c0: 8cc8 57a4 5bf1 f73e 15dd 0875 e078 073f
000005d0: 44ff 29b9 8341 f7be 1693 98bf 1f84 0dbf
000005e0: 603e 3998 e40e 01bf b1ab d4fb e823 f43e
000005f0: 6166 2109 f73c f13e 7466 ee05 f251 073f
00000600: 7967 6d3c 263a f43e 21cd 8818 464a f53e
00000610: 60a5 cb72 012b db3e 8404 89d9 3d86 adbe
00000620: be4a 53da 4917 f2be 2692 94e2 3cf4 f7be
00000630: 1bc8 cabe fa59 eb3e 74f0 3539 e9d7 f53e
00000640: e22c 40e6 115e 0b3f 919b 76de fd0b e63e
00000650: b5e9 9aa7 5b52 fbbe f296 596f ca4f fabe
00000660: 990a 513c cbcd f3be db13 0a7e 69eb f2be
00000670: 604b aa12 3e8c da3e 1df4 848c b133 023f
00000680: 1861 c6c5 0272 fa3e 81ab 1099 5df4 ea3e
00000690: 02fc 19a0 87f2 e63e ca04 adf2 7980 efbe
000006a0: cc84 92e8 996b c6be 5954 730f c760 e5be
000006b0: 5864 a2ce 641f c9be df59 9186 4fdb fe3e
000006c0: d60f fe60 184a d63e b183 34ba 3fb7 fd3e
000006d0: ff34 4d44 bb87 c43e 3640 71be 93b5 dd3e
000006e0: dfa8 cede 5594 00bf e58f c0ca a790 e0be
000006f0: ed39 70c5 4d43 f43e a617 d814 1898 e93e
00000700: 2ecf a88e ecc5 e43e 5b8c 88e5 4d3e bc3e
00000710: 99f9 ecd2 1eb9 c6be 15e6 aa33 742c d9be
00000720: f441 aa39 5a79 d23e 08b0 c877 4d58 e3be
00000730: 93d4 11ef 831e 9ebe bf00 fea7 5de7 eb3e
00000740: 5f48 4e17 8fdd fd3e 1948 f558 bcdb 0c3f
00000750: 1c32 74f0 42c1 ea3e 0899 e49e 957e 06bf
00000760: 2fb5 e025 b842 e6be b63c c2a7 1417 f4be
00000770: 0910 1a2f 7d2c 96be a6e7 dc67 cd6c f53e
00000780: f920 0158 14f3 f83e 0e04 3e65 cf20 e53e
00000790: 5b47 b290 3638 e03e 58e7 0d4b eec6 003f
000007a0: 4c0f 05d9 062d d13e 6bc2 05ec af8d d23e
000007b0: 1484 a143 e244 fe3e 9486 c8fc 3209 f33e
000007c0: 65d8 8cf1 6658 f53e 2571 c84a c82e eb3e
000007d0: 9b53 67dd a6fd 03bf 5750 a3a6 fe40 f8be
000007e0: 2302 1a28 71ca ffbe f629 4714 2d27 e5be
000007f0: bf56 7a50 8cbb e03e 5db5 8d1e 30a5 013f
