ParamsAlgoAP/BTC/params26.npz (npz, 15140 bytes, 3 tensors)

means f8 [96, 16]
000000 e7 c5 34 8d 64 0d 13 3f 24 24 75 26 6d 71 02 3f
       7.26788160150465e-05 3.517736768771814e-05
000010 86 45 a3 40 f2 97 1b 3f 99 a5 b8 40 0f 03 d0 3e
       0.00010526100246301657 3.817546722775615e-06
000020 6b 5c ea 54 07 f3 16 bf 04 2d 0f af 1c b8 05 bf
       -8.75447487750245e-05 -4.14260629280853e-05
000030 4c 99 f0 3f 6d 1e cb 3e d1 ab d5 7b 04 49 d3 3e
       3.2328193806551946e-06 4.597955862588108e-06
000040 02 7c d5 3a 3a 79 37 3f 07 f4 8c 48 ba 36 34 3f
       0.00035817786814179586 0.0003084378045519757
000050 50 b8 f6 ce 63 e0 47 3f a4 47 dd 5f e9 d0 00 bf
       0.0007286536546666864 -3.207409098017415e-05
000060 d5 0a b6 2f ac f6 3f bf 76 2b 0b 8f f4 c0 6b bf
       -0.00048772529381594976 -0.003387906698070815
000070 39 a6 cf 45 7f 89 3d 3f 82 ff 83 b0 c6 66 10 3f
       0.0004507003521313255 6.256663994363805e-05
000080 56 30 60 15 ce e2 f0 3e a6 00 0d 59 e7 d9 05 3f
       1.610370357955944e-05 4.167783038733332e-05
000090 6a 07 f7 ab a3 4c f4 3e a8 8a cd e2 91 35 ed 3e
       1.9358990128066403e-05 1.3928059240779958e-05
0000a0 1d 49 4e b7 83 bb d0 3e 70 13 c1 0c c9 5a ed be
       3.98933376723396e-06 -1.399737848129811e-05
0000b0 d5 90 3d 1b 0e b8 02 bf 3d a6 26 49 44 67 eb 3e
       -3.570359277097068e-05 1.3066952566048658e-05
0000c0 98 6e 73 12 9b 54 25 3f b6 79 d3 e5 1d 14 21 3f
       0.00016273873300220033 0.00013029923403613607
0000d0 fc 0a 58 15 47 fe e5 be 33 18 0a da 33 2e 0f bf
       -1.048720938979152e-05 -5.9472043408212784e-05
0000e0 05 8a 3f b8 07 2f 21 bf 70 96 a5 63 fe ff 2c bf
       -0.00013110131487710522 -0.00022125225388973683
0000f0 12 1f 52 f0 2b 23 ec 3e fe e5 2e 42 fb 30 13 3f
       1.341695270641556e-05 7.32091289553857e-05
000100 84 5f b4 a2 9b d2 fa 3e d2 1e f5 81 fe 26 f7 3e
       2.558010798478463e-05 2.2079773882382e-05
000110 ac 65 3c ba 22 44 ed 3e df 0d a1 4f 1a c0 f3 be
       1.3955190133740598e-05 -1.8835450625210678e-05
000120 e4 2b 51 63 cb 41 f6 be 4f 92 4a 74 36 ec a0 3e
       -2.1225938514651032e-05 5.043359370860667e-07
000130 e3 f3 48 e4 15 85 cb 3e 19 22 46 2d c2 16 e1 3e
       3.2806235899227788e-06 8.14862270527663e-06
000140 10 24 ca cc fd c8 24 3f 23 fa d7 4f 43 09 0c 3f
       0.00015857790130649517 5.3474775977936194e-05
000150 f7 c2 b0 1f 67 ca 00 3f 48 17 0b 05 d7 90 02 bf
       3.202559670290554e-05 -3.5411416893489785e-05
000160 4a 03 f0 59 93 98 26 bf c9 7d e2 6d a1 19 01 bf
       -0.00017239378664160094 -3.2615889481886805e-05
000170 6b ec 2e 0c 67 8b f3 be 8e ee 40 6d 91 57 14 3f
       -1.8639126903013616e-05 7.75988112885989e-05
000180 7d ce e8 74 63 c9 f3 3e ea d8 2e 7c 4e 91 fc 3e
       1.887004264684724e-05 2.7244190061025924e-05
000190 6d d2 6d ef 6f 25 d3 be a5 c9 ab cf 20 af cb 3e
       -4.564819156328669e-06 3.3002012264023904e-06
0001a0 f2 0d 33 8c 88 38 e4 be 9f a3 24 a4 4f ec f4 be
       -9.642044807362468e-06 -1.995381377032127e-05
0001b0 07 eb b1 c5 66 6e d5 be a7 7d ec 11 4c 3b eb 3e
       -5.109609527593655e-06 1.2985052817492496e-05
0001c0 bb 51 2b b4 b5 db 1f 3f 6b 93 05 6e 8f f5 08 3f
       0.00012152954608818979 4.7605933789529976e-05
0001d0 40 91 61 b0 9a b0 0b 3f 9f 7a 68 a8 a3 eb 07 bf
       5.281421731309849e-05 -4.5624668065115776e-05
0001e0 6e 11 dd 04 f5 19 1e bf cb 48 71 68 9a 5a 24 bf
       -0.0001148277089813626 -0.00015528807509441184
0001f0 63 8a 91 6a 3e 89 f4 be 72 5d d1 14 5e 27 1c 3f
       -1.958475937547734e-05 0.00010739814497761293
000200 4d d0 d1 7f 38 f7 fa 3e 4e a7 97 d8 13 07 f5 3e
       2.571650110323757e-05 2.0053526474862145e-05
000210 33 49 ae cc 7d 6a ec 3e e7 4d 79 62 9d af f7 be
       1.3549796127586104e-05 -2.2588725327855454e-05
000220 f7 32 34 31 1e bd c6 be c7 20 9b bd 11 47 f2 be
       -2.7106692727152127e-06 -1.7430891466913686e-05
000230 13 eb ac 10 1a 67 dd 3e 40 3e 27 da 74 d5 01 3f
       7.010159843552258e-06 3.4015301270448346e-05
000240 cb e6 32 42 ed b7 1f 3f 24 56 e7 3d aa 72 14 3f
       0.00012099633800035784 7.80025870662162e-05
000250 e2 8c 61 5f 23 5d fc be 4d 81 9e 92 aa 70 12 bf
       -2.7049847595950266e-05 -7.034340947465363e-05
000260 ed 9e f8 a4 cd 7f 1b bf 76 02 1d fb d0 2c 03 bf
       -0.00010490124372408332 -3.657353171471627e-05
000270 89 63 b8 58 91 63 e5 3e 3e e6 ad 07 0d ed 15 3f
       1.0199039727475246e-05 8.364097622672818e-05
000280 8e 94 36 0d 45 8c dd 3e b0 13 70 be b7 3b de be
       7.044775162700095e-06 -7.2081738613548e-06
000290 99 c7 3b 2e 21 a3 de 3e 70 2e d5 54 4e a3 ea be
       7.304483663027588e-06 -1.2701947208391284e-05
0002a0 63 f7 ce 53 b8 c8 e3 be c4 0b c0 9d 0e cb e7 3e
       -9.43377619388634e-06 1.1345477950902123e-05
0002b0 b7 4e d6 13 f9 d9 f2 3e 82 ae 6c 8a 88 38 f0 3e
       1.7978150244581377e-05 1.5469392248208907e-05
0002c0 06 fc 44 21 37 0e 14 3f 32 57 46 b5 e4 d3 13 3f
       7.650577055516591e-05 7.563670562257539e-05
0002d0 c5 8a f0 92 0a 55 f5 be db cf d9 a5 41 a1 11 bf
       -2.034396419160302e-05 -6.725276167590616e-05
0002e0 17 17 29 d6 e8 a8 17 bf ee 83 0c ea 5e 77 ee 3e
       -9.02549850617353e-05 1.4527460110937457e-05
0002f0 fd 9f f5 d9 20 e9 0a 3f c2 40 29 a6 cf b3 14 3f
       5.1328005833906045e-05 7.897333993267793e-05
000300 fc eb 2d ad 65 83 b3 be 46 91 c2 e2 25 23 f3 3e
       -1.1630815392727175e-06 1.8250748482843687e-05
000310 ca 8b 27 fe 2f fe ce 3e c1 2c c6 91 6c 18 fc 3e
       3.694643951877742e-06 2.6793867719682134e-05
000320 da ed 61 c5 6e 0d 01 bf de d5 4f 95 06 39 fa be
       -3.252500816671904e-05 -2.5007969572462634e-05
000330 bd 77 2d 3c 1e a6 df 3e 44 c3 74 6a a9 e8 f0 3e
       7.5456854940740685e-06 1.6125521736745697e-05
000340 b6 c8 28 8d c3 d9 10 3f a9 45 9b fc d4 3f da 3e
       6.42800908188548e-05 6.258331220103225e-06
000350 f4 b0 93 a3 28 41 f6 3e 7b 50 fb 9e 40 7c 02 bf
       2.1223570205217973e-05 -3.525802810391915e-05
000360 ee 2e 95 76 98 35 0e bf af bc c7 09 9d 74 e0 3e
       -5.761977701953894e-05 7.84660397187687e-06
000370 2c 68 78 49 44 62 f9 3e 27 04 e0 99 f3 0e 12 3f
       2.420793006594633e-05 6.888734648670455e-05
000380 a0 76 9a ab ad 6b f6 3e ee 6e 22 23 f6 cf f2 3e
       2.1381968258729817e-05 1.7940854555405687e-05
000390 43 09 f1 b2 2a d4 e0 3e bf cf 2d ef 7a ad e0 3e
       8.024585978931429e-06 7.952526606770539e-06
0003a0 19 9d c4 a9 a9 1d d9 3e d0 9e c2 41 f1 09 d9 3e
       5.9880900631700075e-06 5.969724068112268e-06
0003b0 62 c6 03 1a f7 ac d9 3e 93 58 dc c1 98 0e ea 3e
       6.12155091083005e-06 1.2424954600781079e-05
0003c0 e1 6b 27 6c fd 36 0f 3f dc 86 89 66 70 52 16 3f
       5.9537514534212034e-05 8.515177763393104e-05
0003d0 2f 5f 4e da ae 5f d2 be 9f af b5 0a 4f 5f 03 bf
       -4.380646179045867e-06 -3.6949729600304524e-05
0003e0 7e 9a 43 82 14 04 0d bf 25 b8 59 89 35 64 06 bf
       -5.534350955987021e-05 -4.270828609952174e-05
0003f0 4e af 27 be 00 8d fb be ff 93 cf b1 91 60 07 3f
       -2.6274483284113256e-05 4.458851456216189e-05
000400 07 b4 91 bd ac b4 01 3f c2 4d 0d fc cb b7 f0 3e
       3.377105867561491e-05 1.5943485553405466e-05
000410 df 7f 55 c3 28 2f e6 be 89 1e 11 9e 19 a4 eb be
       -1.0578258392512862e-05 -1.3180263467429318e-05
000420 fe 9e 14 c0 22 22 03 bf 68 4a 58 6d 00 67 d1 3e
       -3.649395513099887e-05 4.149043623796236e-06
000430 d7 8e 2a 69 2b 91 ff 3e 5d 74 ea 79 87 0c fd 3e
       3.0104702612234295e-05 2.770323009803167e-05
000440 d0 78 76 7c e5 39 15 3f f3 c2 4d 80 b3 88 0e 3f
       8.097136662008346e-05 5.8238962117656676e-05
000450 27 68 27 c6 ad ef f3 3e c9 51 9d 83 94 45 12 bf
       1.9012685138132667e-05 -6.970137556311993e-05
000460 13 eb b3 18 84 85 08 bf 12 45 e8 48 2e 6f f8 be
       -4.677113892089502e-05 -2.3302364349280193e-05
000470 a7 e9 fc 2a bf 2a d4 be 0c fa f3 9e 2b cb 0c 3f
       -4.808182595012628e-06 5.491949911550298e-05
000480 3e b3 5b c1 eb b8 f0 3e 94 36 7b 7d f5 b5 fa 3e
       1.5947673168637025e-05 2.547338212260124e-05
000490 72 f0 90 72 dd 8f d3 be fc d5 2a 81 03 cc 86 be
       -4.66393775249925e-06 -1.6985035296782753e-07
0004a0 b6 5c 56 b0 07 0f ff be b1 f1 e4 2d 97 77 d3 3e
       -2.9619895050095247e-05 4.6413303763062134e-06
0004b0 cc a2 39 a1 41 60 d3 3e 8e d3 54 0e e4 7b 03 3f
       4.61959872986228e-06 3.716268273948948e-05
0004c0 24 bb 01 58 41 90 10 3f 4b c4 d0 db 05 81 06 3f
       6.318472697029433e-05 4.292296532815899e-05
0004d0 85 58 71 60 be d5 01 3f 52 19 44 9e ef 3a 0a bf
       3.4017441117016114e-05 -5.003017193598809e-05
0004e0 33 9d e5 b2 72 5d 0b bf 99 a6 0a 1c 40 a5 f3 be
       -5.2194655256349724e-05 -1.8735417827520256e-05
0004f0 3d 62 a5 24 62 4f ea 3e 3b a0 48 5e 82 09 06 3f
       1.2545629165459509e-05 4.2032519364021814e-05
000500 74 0a 31 51 b0 04 f3 3e 09 86 f8 95 18 3a f3 3e
       1.813727892519897e-05 1.833623661984775e-05
000510 2a a5 62 e2 a7 cd e1 3e 72 81 2e 91 c3 10 fc be
       8.489295464225185e-06 -2.6765331380241985e-05
000520 2f 5c a3 79 ce b3 e3 3e 8c 01 89 14 50 5e c7 be
       9.394821792003693e-06 -2.7857314857384086e-06
000530 9c 78 b0 21 90 4a 01 3f 56 a3 4e 0c d8 bd f2 3e
       3.29804645036052e-05 1.7873361474993306e-05
000540 3d 79 ac fc 9e 20 0c 3f 5b 78 75 6c 4d ab 08 3f
       5.364880742874049e-05 4.705266979486484e-05
000550 51 dc 1c 58 dd 78 0a bf e8 a7 64 3a eb f0 09 bf
       -5.04915760885452e-05 -4.947870120226833e-05
000560 b1 ff 05 e0 02 57 06 bf e1 c2 00 03 a2 52 fc be
       -4.2609954109983936e-05 -2.701071224481516e-05
000570 52 bc 1e ff d2 69 04 3f 61 4a 0c 8e cb e4 10 3f
       3.8935424427115895e-05 6.444446945534081e-05
000580 b3 ba cf a3 e1 de ea 3e a3 b6 56 d0 7b f2 c1 3e
       1.2812915082674935e-05 2.1394731699240617e-06
000590 a4 62 27 83 80 69 d0 3e fe ac 27 d3 56 be e7 be
       3.912953661055225e-06 -1.132178895076616e-05
0005a0 0b c2 10 ef a9 4e de be f9 5f 1a 75 dc f8 dc be
       -7.2258187496098125e-06 -6.907490232820051e-06
0005b0 33 e3 e3 6a d0 a1 db 3e 26 52 9c 0d 1a 6d 94 be
       6.588002788848052e-06 -3.043737827207491e-07
0005c0 ef 6b 0d d7 47 48 fa 3e 27 43 40 c6 d2 54 0c 3f
       2.5064798538348224e-05 5.4037744831819585e-05
0005d0 61 47 b3 ff f3 b4 f4 be b4 2a d4 2e 73 d1 01 bf
       -1.9747589232128343e-05 -3.398545036688763e-05
0005e0 49 8b db 76 3a 55 fd be bd 22 c0 b2 62 e2 04 3f
       -2.7974055618505763e-05 3.983367636812205e-05
0005f0 3d ec 1c 3f 38 4d e8 3e f1 79 72 00 35 6c 12 3f
       1.1587924720770949e-05 7.027696129788937e-05
000600 6b 32 a6 a6 35 4c f1 3e e2 17 4f 94 c7 27 f1 3e
       1.6496366166007125e-05 1.636065396206494e-05
000610 34 e9 b1 e6 6c 54 fb 3e 45 86 e2 9c a5 27 d3 3e
       2.606371564837472e-05 4.566877079310832e-06
000620 7c e2 22 0d c1 69 de be df 38 8f 0f bb a9 eb be
       -7.25104855996887e-06 -1.3190751348004754e-05
000630 d1 78 8e 68 be f7 f1 3e ba b6 4b 65 fc d9 f4 3e
       1.713538088987042e-05 1.9885547163525924e-05
000640 5e 6e 43 dd 98 79 10 3f 9b 8e 95 01 85 fd e1 3e
       6.284709462838755e-05 8.578448659597121e-06
000650 7d ea a5 e9 0e b7 03 bf 07 86 9f 55 3e 0a 06 bf
       -3.7603514289015636e-05 -4.203798989955645e-05
000660 10 67 38 17 d1 e2 dc be 1b a9 5b f3 91 8e e8 be
       -6.886959784258161e-06 -1.1709649338571611e-05
000670 7c d4 6f 02 e5 0f e5 be 3b da a6 dc 31 cb 07 3f
       -1.0043186263056782e-05 4.5382937588757094e-05
000680 7d 71 07 70 8a bd fa 3e 3c bb d6 b9 fd 9c e8 3e
       2.5501626625388976e-05 1.1736510539287635e-05
000690 34 99 67 d2 82 11 96 be 9b be cf a9 ca 4f de be
       -3.2884482195488247e-07 -7.2268691413271165e-06
0006a0 db 8d 52 3c 38 c6 83 be 01 93 e3 3e 84 04 c0 be
       -1.4732998302345958e-07 -1.909451831415949e-06
0006b0 48 2a 24 22 d8 3e e3 3e a8 bd 33 1d c6 cc fc 3e
       9.176962582309618e-06 2.746572301942437e-05
0006c0 be 82 7f 55 bb 7f d5 be 9c 77 3b f4 4a b0 00 3f
       -5.125749645146822e-06 3.183106175950955e-05
0006d0 bc fa 12 f0 d3 96 d6 3e e9 2c fc 1f 4f 63 f2 3e
       5.385678151613695e-06 1.753609285430345e-05
0006e0 45 c1 ba 2e c7 b2 fe be f2 4b f5 f1 88 3e 97 be
       -2.9276229652709364e-05 -3.4636672015703425e-07
0006f0 d7 5b c6 69 27 d7 f8 3e 95 c6 ef d4 ab cd f4 3e
       2.368969454521669e-05 1.9839671320859445e-05
000700 46 f0 01 3b e6 da f4 3e a7 ed f3 61 20 02 e4 3e
       1.9888949907884383e-05 9.540704068991915e-06
000710 fc 32 65 e6 fa f7 80 be 97 c8 2b d4 e4 d8 e8 3e
       -1.264264596990957e-07 1.184808809770827e-05
000720 2c 61 ae f5 7b eb e6 3e 68 cd 4c 6e e1 0b bd 3e
       1.0929041016003402e-05 1.7313008637387712e-06
000730 80 55 2f f2 1f ab c2 3e 9c bb 34 69 db 37 dd 3e
       2.2254534015423984e-06 6.966159747974923e-06
000740 3c 92 c9 a1 a3 98 ff 3e 0f 20 cc 6c b4 c8 13 3f
       3.0132529092690425e-05 7.546998240226553e-05
000750 ff 41 df 7f d0 6b f0 3e de ae e4 34 97 36 05 bf
       1.566042919149031e-05 -4.04610533329666e-05
000760 cf e2 df 04 80 ae f0 be b7 3f 92 6b 49 bd f3 be
       -1.590885249666795e-05 -1.8824960282659317e-05
000770 f5 79 ea 99 33 fa dc be 96 6d 52 1e d6 2c e1 3e
       -6.908738582693607e-06 8.18974599275136e-06
000780 b2 07 15 5c 49 94 f8 3e f9 ef cd fa c8 5c f8 3e
       2.344059408199818e-05 2.3233834940836172e-05
000790 7a 60 45 ce a7 5b b5 be c6 72 33 51 65 52 f0 3e
       -1.2730377472927165e-06 1.5565737226152695e-05
0007a0 2a 59 af b1 ee ca c5 3e 27 de 94 ff 3b 18 e8 3e
       2.5978928426081487e-06 1.1489231826019329e-05
0007b0 be d8 77 19 2c 38 ee 3e 6c fd 01 ad 9e 05 f8 3e
       1.4409743740434094e-05 2.2909119082201707e-05
0007c0 d8 4c 83 c3 b2 84 f4 3e 16 1f 1d 10 b8 2a d8 3e
       1.9567826002053794e-05 5.7618310636620945e-06
0007d0 9f c0 c7 94 68 7e e2 be 1f 97 75 2d 00 43 f1 be
       -8.818523064641196e-06 -1.6462060412967342e-05
0007e0 fd a8 9f 98 30 e8 f7 be 98 b1 40 f9 d7 cb f5 be
       -2.279948379416921e-05 -2.0786537405269307e-05
0007f0 3d c0 67 33 db 96 df be a4 f2 ec 09 68 cf 08 3f
       -7.5314717862124364e-06 4.732166529783824e-05

medians f4 [96]
000000 19 ff ce 39 3f 6d c7 39 0f dd c5 39 cd 2c c7 39
       0.00039481444 0.00038037632 0.0003773947 0.00037989617
000010 68 ef c9 39 27 9d d0 39 5e ed d6 39 1b 46 dc 39
       0.0003851608 0.0003978994 0.00040994113 0.00042013903
000020 18 48 e3 39 f9 bf eb 39 68 bd fb 39 ca 0f 04 3a
       0.00043350528 0.00044965724 0.0004801557 0.0005037753
000030 21 88 09 3a 39 54 12 3a 7a 56 1a 3a c5 e6 1d 3a
       0.000524642 0.0005582008 0.000588752 0.0006023462
000040 8c ea 29 3a ca 8f 30 3a 21 68 37 3a 5a 64 44 3a
       0.00064817886 0.00067352934 0.00069964124 0.000749176
000050 80 27 51 3a 68 58 5e 3a a0 70 6b 3a d5 a7 6c 3a
       0.0007978603 0.00084818015 0.0008981321 0.00090276945
000060 88 e2 74 3a 70 b0 84 3a c7 84 89 3a 48 40 94 3a
       0.0009341617 0.0010123383 0.0010491841 0.0011310661
000070 a5 7f 9a 3a 98 37 9e 3a 2c 94 ae 3a 08 6b b7 3a
       0.0011787309 0.0012071012 0.0013319305 0.001399369
000080 c9 93 b6 3a 34 75 cb 3a 46 9f d9 3a 51 1e e4 3a
       0.0013929541 0.00155226 0.0016603253 0.0017404055
000090 b9 7f da 3a c1 f9 e8 3a 43 0d 02 3b d2 27 11 3b
       0.0016670144 0.0017774628 0.001984433 0.002214898
0000a0 9d 2b 13 3b b6 58 18 3b 63 ac 1f 3b d5 f1 1f 3b
       0.0022456415 0.0023246235 0.0024364225 0.0024405618
0000b0 d7 e3 1c 3b 72 c3 07 3b 91 9e 1a 3b c5 bd 2e 3b
       0.0023939514 0.002071586 0.0023593048 0.0026663404
0000c0 e8 19 4e 3b 5e 38 72 3b a7 19 8f 3b df b8 7a 3b
       0.0031448547 0.0036959867 0.0043670717 0.0038257164
0000d0 bd 4a 7d 3b 7c b8 88 3b d5 ac a0 3b 84 51 a2 3b
       0.0038649284 0.004172383 0.0049034157 0.004953565
0000e0 ec e3 9f 3b c5 87 b5 3b 0a cc bb 3b d2 8b b0 3b
       0.0048794653 0.0055398666 0.0057311105 0.0053877616
0000f0 29 b5 bc 3b 82 6d b7 3b b9 ad da 3b 9f 27 fa 3b
       0.0057589007 0.005597771 0.0066735414 0.0076341177
000100 3b de 05 3c 1d 59 08 3c c9 a4 02 3c 69 7f db 3b
       0.00817066 0.0083220275 0.007973858 0.006698538
000110 b6 de 16 3c 11 47 1f 3c 86 21 09 3c c7 95 1c 3c
       0.009208372 0.009721533 0.008369809 0.009557194
000120 46 05 19 3c ff 63 2c 3c 88 29 2b 3c 89 17 64 3c
       0.009339636 0.010521888 0.010446914 0.013921627
000130 14 22 50 3c 13 94 5a 3c ce 73 8e 3c a1 25 a9 3c
       0.012703437 0.013340968 0.017389204 0.020647826
000140 12 3c 5c 3c 6e c5 61 3c 73 59 72 3c ec a0 7e 3c
       0.013442056 0.013779981 0.014791834 0.015541296
000150 14 44 a0 3c 5f 86 a6 3c 3c 83 16 3d 26 f4 cd 3c
       0.019563712 0.020327745 0.03674625 0.025140833
000160 bb 34 e2 3c fa 96 e7 3c 6e 4d a2 3c 96 b8 f0 3c
       0.027613034 0.028270233 0.019812312 0.029384892
000170 d4 ed 2c 3d a3 3f 0d 3d 4d 27 17 3d 00 db 47 3d
       0.042218998 0.034484517 0.036902715 0.04879284

threshold f8 []
000000 1b ea 0f dd 63 3f d0 3e
       3.87373388921e-06
