ParamsAlgoPT/BTC/params2.npz (npz, 1304 bytes, 3 tensors)

threshold f8 []
0	0x3eb0ed7711b675ba	1.00896347175e-06

ptmeans f8 [9, 2]
0	0xbf0b076a5e6ef16a	-5.1553662891975726e-05
1	0x3ef90d8cd4545dcc	2.3892336021706127e-05
2	0xbf110d1866a724e2	-6.50449889355756e-05
3	0x3efb1dd33cc0bdb4	2.5860313869139568e-05
4	0xbef36414a5c4af4a	-1.8492641502706402e-05
5	0x3ef6dc151b383876	2.1800705964074696e-05
6	0xbef2f7bed0d188bb	-1.8089061132883023e-05
7	0x3ef4742341dc1d75	1.9506133063477164e-05
8	0xbee133b62006dfd8	-8.202551726607598e-06
9	0x3efe004e37ad91fc	2.8611367706503688e-05
10	0xbeec861f7c23c2d9	-1.360126396263274e-05
11	0x3efb9561d95007f8	2.63056986860091e-05
12	0xbedb5ed0de7c8f0f	-6.525605819072068e-06
13	0x3efc46c93ec05430	2.696657968222579e-05
14	0xbee4240ea4a1867a	-9.60390493193467e-06
15	0x3efc3569c71b07b8	2.6901860514134713e-05
16	0xbee72870321e8b12	-1.1042576776370355e-05
17	0x3f02551ece7372c6	3.496647132703516e-05

params f8 [9, 3]
0	0x0000000000000000	0.0
1	0x3f80624dd2f1a9fc	0.008
2	0x3ff00ea89229ad70	1.0035787305340271
3	0x0000000000000000	0.0
4	0x3f772ba43fff3716	0.005656854249492379
5	0x3ff00878541f553d	1.0020678792983084
6	0x0000000000000000	0.0
7	0x3f9b8df34d29ce83	0.02690868528811886
8	0x3ff17b993cc1cbc5	1.0926754353829307
9	0x0000000000000000	0.0
10	0x3fa0624dd2f1a9fc	0.032
11	0x3ff14be6ea6af879	1.0810307652423303
12	0x3ff0000000000000	1.0
13	0x3fab8df34d29ce83	0.05381737057623772
14	0x3fee223511a15a84	0.9416756958333541
15	0x3ff0000000000000	1.0
16	0x3f90624dd2f1a9fc	0.016
17	0x3fedd1551bf82ce4	0.9318032785680797
18	0x3ff0000000000000	1.0
19	0x3fa72ba43fff3716	0.045254833995939034
20	0x3fee35a9a3a38461	0.9440506168431392
21	0x3ff0000000000000	1.0
22	0x3f937be56ab1e263	0.019027313840043535
23	0x3feea40af1afa013	0.9575247497969052
24	0x3ff0000000000000	1.0
25	0x3f872ba43fff3716	0.011313708498984758
26	0x3fef8dbe5f333782	0.9860526904464992
