ParamsAlgoPT/BTC/params5.npz (npz, 1264 bytes, 3 tensors)

threshold f8 []
0	0x3ef849e3f9e7756a	2.31634472757e-05

ptmeans f8 [8, 2]
0	0xbf0a023c1f6d6aef	-4.9607715417029445e-05
1	0x3ef97550b5eabc6d	2.4278891369075248e-05
2	0xbf104e9eda06f838	-6.220669320719594e-05
3	0x3efc11a2215a857d	2.6768570100648467e-05
4	0xbef28fe023e4d5c5	-1.7702115877334953e-05
5	0x3ef43bbca463ffb9	1.92960235603221e-05
6	0xbee1562401c8c82b	-8.266681157474077e-06
7	0x3eff510407c0104e	2.9865710970980717e-05
8	0xbee22cde6f656a95	-8.666643662881983e-06
9	0x3efa4ee24adb7b2e	2.5089397857831746e-05
10	0xbee718e1e162254e	-1.1013601618497595e-05
11	0x3efe7885c8e5c4d6	2.9059211152431017e-05
12	0xbed61cf39dc9558a	-5.272172043454212e-06
13	0x3efc3fd10e49a7c0	2.694061631062345e-05
14	0xbee5d9eef54405a3	-1.041951296843169e-05
15	0x3f027ff2ba025497	3.528556340019159e-05

params f8 [8, 3]
0	0x0000000000000000	0.0
1	0x3f80624dd2f1a9fc	0.008
2	0x3ff010fb0d62507f	1.0041456721128552
3	0x0000000000000000	0.0
4	0x3f772ba43fff3716	0.005656854249492379
5	0x3ff00b5b8311cd82	1.0027728195098864
6	0x0000000000000000	0.0
7	0x3fa0624dd2f1a9fc	0.032
8	0x3ff118c81d901c3d	1.0685502199937809
9	0x3ff0000000000000	1.0
10	0x3fab8df34d29ce83	0.05381737057623772
11	0x3fee2cb5ed6a78cb	0.9429578434972198
12	0x3ff0000000000000	1.0
13	0x3f9b8df34d29ce83	0.02690868528811886
14	0x3fedd0d462f619f0	0.9317418988073864
15	0x3ff0000000000000	1.0
16	0x3f90624dd2f1a9fc	0.016
17	0x3feea802f53e5574	0.9580092229759161
18	0x3ff0000000000000	1.0
19	0x3fb0624dd2f1a9fc	0.064
20	0x3fed9e5a8da99836	0.9255802885861673
21	0x3ff0000000000000	1.0
22	0x3f872ba43fff3716	0.011313708498984758
23	0x3fef9107255c11b1	0.9864536027603689
